ml/aloevera/planticure_quantized_model_aloevera.tflite (tflite, 708256 bytes, 10 tensors)

dense_9/bias f4 [3]
000000 5a ab cb bb f1 c6 2e 3c 90 70 91 bb
       -0.006215495 0.0106675485 -0.0044384673

dense_8/bias f4 [128]
000000 e6 7c 41 3c 33 ea bb 3a aa 9b 7a 39 df 38 6b 3b
       0.011809563 0.0014336765 0.00023899847 0.0035892052
000010 38 75 0f bc 88 37 6c 3b f6 8c 57 3c 3c 24 91 3b
       -0.0087559745 0.0036043841 0.013156166 0.0044293683
000020 58 bd 2d 3c 2c 7f f4 bb 64 74 53 bb f6 98 2c bb
       0.010604225 -0.007461449 -0.003226542 -0.002633629
000030 ac 49 a1 3b ee a6 fa 3b 97 e3 07 3c 68 ec 20 3c
       0.0049221125 0.007649294 0.008294008 0.009821989
000040 63 db 25 ba 06 cc 6c ba d7 e1 34 b9 27 b2 17 3c
       -0.00063269417 -0.00090330874 -0.0001725027 0.009258783
000050 45 d9 44 3c 34 9d a7 bb d4 54 3b 3c f0 67 db bb
       0.012014692 -0.0051151756 0.011433799 -0.00669574
000060 af a3 6f 3b 72 67 00 3b eb 94 31 3b 83 2b 1c 3c
       0.003656607 0.0019592908 0.0027096819 0.009531858
000070 df 3c 73 bb 69 46 bd bb 3f da d1 3b 6c ef 17 3c
       -0.003711514 -0.005776216 0.006404191 0.009273391
000080 72 d5 23 bc e3 b2 ae bb b7 82 ff 3a 2f e1 44 3c
       -0.00999962 -0.0053313836 0.0019493912 0.012016579
000090 9f b4 01 3b 5e a4 5f bb 66 41 d5 bb 55 96 f1 3a
       0.0019791496 -0.003412507 -0.0065080402 0.0018431643
0000a0 76 a0 01 3c d6 02 20 3b 22 88 0d 3c fe ad 62 3b
       0.007911792 0.0024415753 0.008638414 0.003458857
0000b0 ca 79 01 bc 2f a6 32 ba 71 e6 84 3b f1 00 04 3c
       -0.007902572 -0.00068149244 0.004055791 0.008056865
0000c0 a7 6d ce 3b 98 53 49 3b e1 1f 1f 3a 66 19 32 3c
       0.0062996927 0.0030719992 0.0006070119 0.010870313
0000d0 ba 52 0b 3b 86 33 60 bb 8b dd c2 3b 53 c0 18 bc
       0.0021259026 -0.0034210398 0.00594682 -0.009323197
0000e0 bf d7 89 3b 81 4e 17 ba 8b c2 5d 3b 53 06 06 bc
       0.004206627 -0.0005771891 0.003383788 -0.008180219
0000f0 41 a3 12 3b 47 95 21 3c 6d 81 2f bc da 7a a1 3b
       0.002237514 0.009862251 -0.01071201 0.004927975
000100 a7 00 77 3b f3 42 a9 ba e3 67 23 bc 80 54 24 bc
       0.0037689598 -0.0012913629 -0.009973499 -0.010029912
000110 51 62 25 bc c7 f1 2d bb e5 62 51 3c ca 13 d8 bb
       -0.010094241 -0.0026541816 0.012779926 -0.006594156
000120 99 3c 3a 3c 37 69 9d ba 4a d8 c9 3b a6 21 25 bc
       0.011366987 -0.0012009506 0.006159817 -0.010078823
000130 72 ad ab bb 2a 87 a8 ba 85 41 9b b9 62 82 ea bb
       -0.005239182 -0.0012857665 -0.0002961272 -0.007156656
000140 63 b5 03 3c dc ac 04 bc be d4 a1 3a e7 72 c7 3b
       0.008038851 -0.0080978535 0.0012346727 0.0060866955
000150 15 a1 13 bb 30 22 77 b8 70 0c 1c bb 87 ab 25 bc
       -0.0022526432 -5.892123e-05 -0.0023811124 -0.010111696
000160 15 d0 49 3c 6d c8 05 bc 42 6a 58 3b ca 09 1d 3c
       0.012317677 -0.008165461 0.003302232 0.009584853
000170 ad 0a 6c 3b e5 0b 13 3c 83 ce af bb 84 88 45 3c
       0.0036017105 0.008975004 -0.0053651943 0.012056474
000180 a5 33 dd 3b 43 62 94 bb a1 06 40 3c ff 5a 02 3c
       0.0067505413 -0.0045283153 0.01172033 0.0079562655
000190 71 dc e1 ba df 2d f7 3b b9 ee 27 bc 74 60 c6 b9
       -0.0017231834 0.00754331 -0.010249787 -0.00037837366
0001a0 04 aa ca ba ff 81 3a 3c 5b cf 93 3a 71 25 d5 ba
       -0.0015462046 0.011383533 0.0011277007 -0.0016261769
0001b0 0a 63 ea 3a d6 02 23 bb 4f ac 20 3c d1 87 b1 bb
       0.0017882299 -0.0024873517 0.009806707 -0.005417802
0001c0 fa 6f c0 bb fe 29 a2 3b 51 39 8b 3b ae 5b 32 3c
       -0.0058727236 0.0049488535 0.004248776 0.010886116
0001d0 ed ad c8 bb bc 87 ac 3b 7e 57 e6 3b 87 cc d9 ba
       -0.006124249 0.0052652042 0.007029473 -0.001661674
0001e0 c0 94 51 ba d9 77 92 3b d5 e9 34 ba f0 07 19 bb
       -0.0007994883 0.0044698534 -0.0006901299 -0.0023350678
0001f0 72 22 4b 3b 2c 08 f6 3b e1 e6 96 3b 09 f5 ee 3b
       0.0030995873 0.0075082984 0.0046051596 0.007292394

conv2d_14/bias f4 [8]
000000 88 87 01 3c 5d 51 95 3c 6f 86 61 3c 80 fe 8c bc
       0.007905848 0.018227274 0.013764962 -0.017211199
000010 0c ff 15 3c e4 2a ea 3b 1f 10 01 3c 32 f0 4b bc
       0.009155046 0.0071462262 0.007877379 -0.012447404

conv2d_13/bias f4 [16]
000000 ec e8 3c bb b5 7b 9c 3c 35 a9 99 bb 41 65 8a 3c
       -0.0028825356 0.019101957 -0.0046893605 0.016893985
000010 cd e9 68 3c fb d8 09 3b b1 ff ae bb 67 a1 84 bc
       0.014215899 0.0021033871 -0.0053405394 -0.016190244
000020 c7 73 01 bc a4 50 63 3b db 08 b1 3b ec b0 93 ba
       -0.007901139 0.0034685517 0.005402667 -0.0011267937
000030 c2 b2 11 bc fb 71 0a 3b bf 70 90 3c ac 66 4f bc
       -0.008892717 0.0021125067 0.017631887 -0.012658756

conv2d_12/bias f4 [32]
000000 64 d9 38 bb b8 b4 32 3c 90 d6 5c 3c fd 9f 56 3c
       -0.0028205747 0.0109073445 0.01347889 0.013099668
000010 91 1e be 3c 05 d4 0b 3b b3 f2 89 3c cf a4 eb bb
       0.023207935 0.002133609 0.01683936 -0.0071912776
000020 0c 15 0d 3b d8 dd 49 3c f9 19 8d bb 4e e1 8e 3c
       0.0021527437 0.012320958 -0.0043060747 0.017441418
000030 3c 16 03 bb 43 72 35 3c 2b bb 37 3c a1 7f 85 3c
       -0.0020002266 0.011074605 0.011214058 0.01629621
000040 f2 86 61 3b 4d 49 80 3c a7 1c 99 37 ed cf 85 3c
       0.003441271 0.015659953 1.8252364e-05 0.016334498
000050 0a 65 14 bc 84 b1 cf ba 95 c8 58 bb 35 b8 b4 3c
       -0.009057293 -0.001584575 -0.003307854 0.022060493
000060 10 ea 98 3b 47 20 1a 3b ed fb 30 ba ee 28 9e 3c
       0.0046665743 0.0023517774 -0.0006751407 0.019306626
000070 d6 0f 3b 3c 2b 72 ce 3c 35 a0 6c bc 18 23 95 ba
       0.01141735 0.025200924 -0.014442493 -0.0011378257

sequential_4/dense_8/MatMul i1 [128, 5408] scale=0.0006010054 zero_point=0
000000 e3 f5 d5 2d f7 d9 14 01 2d 2b 01 d5 1e fe 23 d7
       -0.017429156 -0.0066110594 -0.025843231 0.027045242 -0.0054090484 -0.02343921 0.012020107 0.0006010054 0.027045242 0.025843231 0.0006010054 -0.025843231 0.018030161 -0.0012020108 0.021035189 -0.024641221
000010 2b 34 fc eb f4 eb f5 d5 d1 e9 00 f4 e6 0c c9 dc
       0.025843231 0.03125228 -0.0024040216 -0.012621113 -0.0072120647 -0.012621113 -0.0066110594 -0.025843231 -0.028247254 -0.013823124 0.0 -0.0072120647 -0.01562614 0.0072120647 -0.033055298 -0.021636194
000020 08 dd 35 f6 fb ca e9 c4 20 44 f6 fb d2 fe 1c 09
       0.004808043 -0.021035189 0.031853285 -0.0060100537 -0.0030050268 -0.03245429 -0.013823124 -0.036060322 0.019232173 0.040868368 -0.0060100537 -0.0030050268 -0.027646247 -0.0012020108 0.016828151 0.0054090484
000030 ea d3 db 16 dc e2 0d e8 02 f3 0a 11 d4 33 1b dd
       -0.013222119 -0.027045242 -0.0222372 0.013222119 -0.021636194 -0.018030161 0.00781307 -0.014424129 0.0012020108 -0.00781307 0.0060100537 0.010217092 -0.026444238 0.030651275 0.016227145 -0.021035189
000040 35 40 17 3a c7 d7 ea f1 10 03 1f 28 33 2b e7 ec
       0.031853285 0.038464345 0.013823124 0.034858312 -0.034257308 -0.024641221 -0.013222119 -0.0090150805 0.009616086 0.0018030162 0.018631168 0.024040215 0.030651275 0.025843231 -0.015025135 -0.012020107
000050 1c 2e b7 2b 10 ed ea d0 fd e6 f0 01 e9 02 12 0c
       0.016828151 0.027646247 -0.043873392 0.025843231 0.009616086 -0.011419103 -0.013222119 -0.028848259 -0.0018030162 -0.01562614 -0.009616086 0.0006010054 -0.013823124 0.0012020108 0.010818097 0.0072120647
000060 ca 10 10 e6 10 3b f6 19 db 25 13 11 d8 fd 0c 21
       -0.03245429 0.009616086 0.009616086 -0.01562614 0.009616086 0.035459317 -0.0060100537 0.015025135 -0.0222372 0.0222372 0.011419103 0.010217092 -0.024040215 -0.0018030162 0.0072120647 0.019833177
000070 1a ff cd 39 06 17 3a 30 f9 cf eb 05 de 0d 2f de
       0.01562614 -0.0006010054 -0.030651275 0.034257308 0.0036060323 0.013823124 0.034858312 0.028848259 -0.004207038 -0.029449264 -0.012621113 0.0030050268 -0.020434184 0.00781307 0.028247254 -0.020434184
000080 e5 ce ed 1b 28 fe 2b 00 ca 19 17 e9 24 2c 40 de
       -0.016227145 -0.03005027 -0.011419103 0.016227145 0.024040215 -0.0012020108 0.025843231 0.0 -0.03245429 0.015025135 0.013823124 -0.013823124 0.021636194 0.026444238 0.038464345 -0.020434184
000090 18 3c 03 1d 13 fd f5 31 fd f5 41 cb 3c db 2b c8
       0.014424129 0.036060322 0.0018030162 0.017429156 0.011419103 -0.0018030162 -0.0066110594 0.029449264 -0.0018030162 -0.0066110594 0.03906535 -0.031853285 0.036060322 -0.0222372 0.025843231 -0.033656303
0000a0 ea da e0 d7 4b 05 c7 ff f0 fd 20 26 f3 cc 01 22
       -0.013222119 -0.022838205 -0.019232173 -0.024641221 0.045075405 0.0030050268 -0.034257308 -0.0006010054 -0.009616086 -0.0018030162 0.019232173 0.022838205 -0.00781307 -0.03125228 0.0006010054 0.020434184
0000b0 e3 d5 0b 2f 26 e4 0b ec e1 3c e5 e8 30 03 d0 19
       -0.017429156 -0.025843231 0.0066110594 0.028247254 0.022838205 -0.016828151 0.0066110594 -0.012020107 -0.018631168 0.036060322 -0.016227145 -0.014424129 0.028848259 0.0018030162 -0.028848259 0.015025135
0000c0 f9 f2 30 29 cf 35 0d d7 d0 3b 2d 20 09 e7 f0 dc
       -0.004207038 -0.008414076 0.028848259 0.024641221 -0.029449264 0.031853285 0.00781307 -0.024641221 -0.028848259 0.035459317 0.027045242 0.019232173 0.0054090484 -0.015025135 -0.009616086 -0.021636194
0000d0 1b 37 de 0c f6 f6 16 2b d9 e1 d7 ef f9 2a 3c 1f
       0.016227145 0.033055298 -0.020434184 0.0072120647 -0.0060100537 -0.0060100537 0.013222119 0.025843231 -0.02343921 -0.018631168 -0.024641221 -0.010217092 -0.004207038 0.025242226 0.036060322 0.018631168
0000e0 ed 49 18 d7 09 2d 1b ea 0b f8 09 2f bd 27 12 ec
       -0.011419103 0.043873392 0.014424129 -0.024641221 0.0054090484 0.027045242 0.016227145 -0.013222119 0.0066110594 -0.004808043 0.0054090484 0.028247254 -0.04026736 0.02343921 0.010818097 -0.012020107
0000f0 e9 ce f8 0e f9 22 24 fd 0e fd df 18 14 0a 14 e7
       -0.013823124 -0.03005027 -0.004808043 0.008414076 -0.004207038 0.020434184 0.021636194 -0.0018030162 0.008414076 -0.0018030162 -0.019833177 0.014424129 0.012020107 0.0060100537 0.012020107 -0.015025135

sequential_4/dense_9/MatMul f4 [3, 128]
000000 72 47 2c bc b6 1a bf bd 83 91 bf 3d 08 c0 77 be
       -0.010515081 -0.093312666 0.09353926 -0.24194348
000010 c5 5e 83 3c 82 76 1a 3e cc d3 1c be 68 e6 f3 3d
       0.0160364 0.1508427 -0.15315169 0.11909181
000020 bf fa f9 3c 49 f7 49 3e 87 42 1d 3e a4 b4 0b be
       0.030515073 0.19723238 0.1535741 -0.13643128
000030 bd 72 2e 3e f8 40 34 be a4 7a 6d bd 8c 7c 46 be
       0.17035957 -0.17602909 -0.057978287 -0.19383448
000040 a7 d8 b6 bd 22 ca a2 3b 48 28 57 bd 0e ff 17 be
       -0.08928042 0.0049679438 -0.05252865 -0.1484339
000050 b7 b2 41 be cc d8 dd 3d df 29 14 be 6e 49 c9 bd
       -0.1891583 0.10832366 -0.14469098 -0.09828459
000060 bb c4 5b be 42 76 ad bd 30 69 2c 3e 6d 28 05 be
       -0.21461765 -0.084698215 0.16837001 -0.13003702
000070 ee 23 23 be 47 aa bc 3d ad 85 2d be 38 b2 1a 3d
       -0.15931675 0.09212165 -0.16945525 0.03776762
000080 62 3a 4f 3e 9b 62 6a 3c 96 7c 0c be ed 10 8a bd
       0.20237115 0.014305736 -0.13719401 -0.067415096
000090 20 27 d4 bd 90 34 ef bd 86 36 99 3b bc 0e 17 3d
       -0.10359025 -0.116799474 0.004675689 0.036879286
0000a0 a2 8b c7 3d e0 70 24 3e fa 26 8b bd 96 b1 11 be
       0.0974343 0.16058683 -0.067945436 -0.142279
0000b0 bd cc 2d 3e 2c 59 9a bb bd af 4b bd c3 80 b0 3d
       0.16972633 -0.004710337 -0.049728144 0.08618309
0000c0 be d9 03 3e 6c 76 4c be 32 da 2a 3e ed 0c 4c be
       0.12876031 -0.1996705 0.16684797 -0.19926806
0000d0 ff be 2e 3d 68 a2 a2 bc 5b 38 7b bd 58 58 33 3e
       0.042662617 -0.019852832 -0.06133304 0.17514169
0000e0 bb c2 39 3d 4b 30 5b be ad 72 a6 3d 52 24 bb 3d
       0.045351725 -0.21405141 0.081273414 0.09137787
0000f0 35 34 aa 3d 4f 33 38 bd f7 b7 44 3e be fe 12 3e
       0.08310739 -0.044970807 0.19210802 0.14354989
000100 53 f5 3d be 77 2b 04 be 36 29 b7 3d 73 94 18 3e
       -0.18550615 -0.12907206 0.08943407 0.14900379
000110 12 a6 21 3e 0f 3e 53 be 15 24 25 be 2e 95 18 3e
       0.15786007 -0.20629142 -0.16127045 0.14900658
000120 46 73 4c be 38 6d 35 3c 28 10 23 be 15 40 19 3e
       -0.19965848 0.011073403 -0.15924132 0.14965852
000130 4c 3b 9a bc 36 dc 91 3d a3 f3 46 be a4 8d 4f bd
       -0.018827103 0.0712208 -0.19428878 -0.05067219
000140 85 6e 5d 3d 9c 5d e6 3c 16 cf e8 3d 7a 55 5b be
       0.054060478 0.028120808 0.113676235 -0.21419325
000150 59 e7 50 3e a9 8e a9 bd 91 e0 cd 3d b2 50 57 3e
       0.20400752 -0.082791634 0.10052598 0.21026877
000160 4f 65 0d 3d 43 74 4d bd d5 86 d1 3d 3d 6f 9c 3d
       0.034520444 -0.050159704 0.10230795 0.076384045
000170 f1 5d a0 3d dd af ac bd f2 3b 5d 3e 8c 75 51 bd
       0.07830418 -0.08431981 0.21604899 -0.051137492
000180 21 77 38 bd 20 ae a4 bd 0f 4f 58 3d 1e 96 0c 3d
       -0.045035485 -0.08041024 0.05280977 0.03432285
000190 b9 3a e5 3d 6a 38 32 be cb 75 51 3e 66 d8 4c be
       0.11192841 -0.17404333 0.2045509 -0.20004424
0001a0 77 cd 0f 3d b9 68 ca bd 00 bf 8f 3d d9 29 b1 3b
       0.035108056 -0.098832555 0.07018852 0.0054066
0001b0 2f a7 c2 3d 80 a3 59 3e 8a c7 54 be a4 2d 6e 3d
       0.09504544 0.21253777 -0.20779243 0.058148995
0001c0 39 e6 0c 3e b4 c4 1d be c5 3a 26 3e 12 73 15 be
       0.13759698 -0.15407068 0.16233356 -0.14594677
0001d0 d3 7f 30 3e ba ff 3e 3e d6 f1 b1 ba 05 5c dd bb
       0.17236261 0.1865224 -0.0013576101 -0.0067553543
0001e0 c9 42 4b 3e ff 71 23 be 15 2c 2e bd 86 fb 2d be
       0.19849695 -0.15961455 -0.04252251 -0.1699048
0001f0 e7 ad 5c be 77 9f 8e 3d b4 a3 39 3e f8 2a 23 be
       -0.21550713 0.06964009 0.18128854 -0.1593436
000200 c0 9b 00 3e f2 94 32 bc 9c 62 c0 3d 79 e9 91 3b
       0.12559414 -0.010899769 0.09393808 0.004452881
000210 8b d3 49 be 01 91 22 3e f7 2f 03 3e 19 7b b6 3d
       -0.19709603 0.15875627 0.12811266 0.08910198
000220 0e a2 20 3e 16 53 58 be a8 52 44 be 05 ae 1f be
       0.15686819 -0.21125445 -0.19172156 -0.15593727
000230 b9 a6 55 3e ca 6e 1d bd 9f 17 0e 3e e8 91 52 bd
       0.20864381 -0.038435735 0.13876198 -0.05140868
000240 e2 7e 76 bd 48 da 17 3d 59 2d b5 bd 08 3e 31 3e
       -0.0601796 0.037073404 -0.0884654 0.1730882
000250 d9 46 0a bd a2 aa 2e 3c 3e 18 07 3e ae 52 2e be
       -0.03375897 0.010660799 0.13192841 -0.17023727
000260 fe c0 47 3e 70 0f 89 3d 9f e7 8e bb 7f ea f7 3d
       0.19507214 0.066923976 -0.0043611075 0.121052735
000270 13 ad 46 be 49 7e e6 bd e9 20 d3 3d 3c 36 46 3e
       -0.1940196 -0.11254556 0.103090115 0.19356626
000280 e3 c8 09 be 96 3c 25 be 1f e3 0d 3b 5e 95 9b 3d
       -0.13455538 -0.16136393 0.0021650267 0.07596849
000290 a1 cc a7 3d 64 13 e9 bd 87 b6 29 be 19 27 3e 3e
       0.08193327 -0.113806516 -0.16573535 0.18569602
0002a0 4c 0a 2b 3e 2d 80 34 3e f7 70 d9 b8 88 41 08 bb
       0.16703147 0.1762702 -0.00010368408 -0.0020791013
0002b0 68 c3 21 be 9b 62 4f 3d a0 5b 56 3e 85 77 49 3e
       -0.15797198 0.050631147 0.2093339 0.196745
0002c0 1d 9e 24 3e 57 39 82 bd 66 e6 30 3e c3 6e 98 bc
       0.1607594 -0.06358593 0.1727539 -0.018607503
0002d0 92 f1 a1 3d 1c 73 04 be a6 b9 f5 3d 82 12 f1 bd
       0.07907404 -0.12934536 0.119983 -0.11771108
0002e0 fe ae d3 3c 97 aa ee bd 06 35 87 bc 92 c3 06 be
       0.025840279 -0.11653631 -0.016504776 -0.13160542
0002f0 ae 9a 6c 3e 83 13 1c 3e ab 75 79 bd 07 1b 01 3e
       0.2310588 0.15241818 -0.060903233 0.12607966
000300 fb 51 42 3e d7 68 83 bd 4c 04 2b be 72 c2 a4 3c
       0.18976586 -0.06416481 -0.16700858 0.02011225
000310 8d 38 13 be cc 96 38 bd e1 a8 78 bc 44 78 15 be
       -0.14377041 -0.045065686 -0.015176983 -0.14596659
000320 03 e1 cb 3d 87 9e 27 3d 9f 98 9d 3d d8 85 50 be
       0.09955027 0.040922668 0.07695126 -0.20363557
000330 67 45 67 be 1b 74 c3 bd 5b 04 dc bd 2b 37 00 be
       -0.22585069 -0.0954363 -0.10743018 -0.12521045
000340 21 54 41 3e b8 9f 5e be 8d 68 f7 bd 05 5a 47 bd
       0.18879749 -0.21740615 -0.12080488 -0.048669834
000350 00 e7 98 3d 6a 23 b4 3a 41 7f 20 be 5d ff 61 be
       0.07465935 0.0013743464 -0.15673544 -0.2207007
000360 06 93 0b 3e f8 6c 1c be 8b 6b 24 3d d1 13 56 3e
       0.13630304 -0.15275943 0.040141623 0.20905997
000370 15 b4 57 3e 69 3f 12 3e 2d 83 0d be 2a f8 1d 3e
       0.2106479 0.14282002 -0.13819571 0.15426698
000380 fe c2 02 3e 8e ab 28 be a7 d5 ad 3d 74 c1 51 3e
       0.12769696 -0.16471693 0.084880166 0.20483953
000390 20 48 11 be a1 d7 22 3e 7e 5b 49 be 22 ef c7 bd
       -0.1418767 0.15902568 -0.19663808 -0.09762408
0003a0 7e a7 53 bc 22 65 7b 3d 2f ff a4 bc 04 57 95 bd
       -0.012918351 0.061375745 -0.020141212 -0.072919875
0003b0 b3 2f c7 3c 04 fd 61 3c d6 3e 06 3e 5a 4d 8d bc
       0.024314737 0.013793234 0.13109908 -0.017248798
0003c0 91 09 ad 3d ec b0 b4 3d 50 e2 05 3e 43 ad c4 3d
       0.0844909 0.08822808 0.13074613 0.096033596
0003d0 2e 4b ce 3d 20 f9 48 3e 00 a9 60 3e 2c 75 0e bc
       0.10072933 0.19626284 0.21939468 -0.008694928
0003e0 1d 5d 3f bd 89 7d 96 bd 3d 60 18 be 64 7b 61 be
       -0.04671966 -0.07348163 -0.14880462 -0.22019726
0003f0 62 cb 57 3c a2 e0 5c 3e 45 35 08 3e 6f e5 b9 3d
       0.013171049 0.21570066 0.1330157 0.09076964

sequential_4/conv2d_12/Conv2D f4 [32, 3, 3, 3]
000000 05 93 ef 3d 95 5f 69 bd 57 64 0c 3e f3 91 fd 3c
       0.116979636 -0.05697592 0.13710152 0.030953383
000010 b7 7d 84 3d 75 a2 bb 3d c4 ce e4 3d 99 42 30 3c
       0.06469291 0.091618456 0.1117225 0.010758066
000020 e4 9a 1a 3e 9d 3d 15 3c dc bf 27 3c 09 be c5 bc
       0.15098149 0.009108928 0.010238614 -0.024138467
000030 8b 0e cc bd 34 47 f1 3d d4 c8 90 bc cc 63 f3 bd
       -0.09963711 0.11781159 -0.017673887 -0.11884269
000040 2f f1 d9 bc ba 5f 80 bc 94 09 14 3d e2 2d 2c 3d
       -0.026604263 -0.015670646 0.036141947 0.042035945
000050 48 ad a1 3c ee 19 20 3d ca d6 a5 bd 56 ed 14 3e
       0.019735947 0.03908723 -0.080976084 0.14543661
000060 c4 aa d2 bc 89 f2 eb bd ba e6 b8 bc 00 07 9a bd
       -0.025716193 -0.11520869 -0.022570956 -0.075208664
000070 60 8e 9f 3d 7f 30 ae bd 67 5b f0 3c 78 d7 f7 3b
       0.07790828 -0.08505344 0.029340459 0.0075635277
000080 17 e4 e5 bd ee 73 16 3e 42 46 aa 3d 4e 0f 50 3d
       -0.11225145 0.14692661 0.08314182 0.050795846
000090 37 e8 a6 3d 1c 4c 11 bd c8 d8 23 3c 63 bb a4 3d
       0.0814976 -0.035472974 0.010000415 0.08043554
0000a0 cb c9 10 3c 29 a8 f8 bd 22 e4 9a bc 1c 58 e5 bd
       0.008837174 -0.12141449 -0.01890761 -0.11198446
0000b0 4e b6 3a bd 64 0b ad 3d d3 f6 d9 3d 6c e9 b8 3d
       -0.045584016 0.08449438 0.10642781 0.09028897
0000c0 c4 65 5e 3d 96 0a 4f bd 61 22 03 bd 69 0a a8 bd
       0.05429627 -0.050547205 -0.03201521 -0.082051106
0000d0 30 87 cb bc ec 48 c4 3d f8 56 16 bd 40 bd 8a 3b
       -0.024844736 0.09584221 -0.036704034 0.004233986
0000e0 c6 b6 f1 3b 13 8a e8 3d ff 0c 11 3d f4 2f e7 bd
       0.0073765246 0.113544606 0.035412785 -0.11288443
0000f0 f2 27 b6 bc 30 2e f7 3d e9 d1 a7 3d f8 20 af 3d
       -0.022235844 0.120693564 0.08194334 0.0855121
000100 8d 89 56 bd e0 05 aa bd 57 9a b7 3d 73 13 3b 3d
       -0.052377272 -0.08301902 0.08964985 0.045672845
000110 f8 9c ff 3d 59 ea f3 3c 32 e5 99 3a 3e 5b 11 3d
       0.12481111 0.029774832 0.0011741279 0.035487406
000120 2c f7 92 bd d4 ae a2 3d c8 a3 f7 3d 91 ea da 3d
       -0.071760505 0.07943502 0.12091786 0.10689271
000130 a5 1c 08 bd 08 e5 c7 3d 94 43 91 bd 05 6f d2 bc
       -0.033230443 0.09760481 -0.07092968 -0.025687704
000140 7f a2 12 3e 2c 05 88 3b f7 dc cc bd b5 de 14 3d
       0.143198 0.004151007 -0.10003083 0.036345202
000150 8e d8 82 bd 02 72 34 3b be 5e 6a b9 3c dd 1b 3e
       -0.06388961 0.0027533774 -0.00022351273 0.15221113
000160 04 09 5b 3d ee 29 32 bd ec d9 d8 bd f4 e2 3f bc
       0.053475395 -0.04349702 -0.1058844 -0.011711825
000170 be 87 e5 3c c3 6b af 3d 47 03 d4 3d 59 3d 24 3e
       0.028018828 0.08565476 0.103521876 0.16039027
000180 ce 21 19 bc 8f f8 e0 bc 29 f1 46 bb 97 8a 04 bd
       -0.009346439 -0.027462272 -0.0030356145 -0.032358732
000190 db bc 4b bd 52 ae c1 bc 13 db da bd 01 92 a0 3d
       -0.049740653 -0.023642693 -0.10686316 0.07840348
0001a0 aa 5f 6a bd f0 a1 d5 bd 28 b1 40 bc ee 9b 77 3d
       -0.05722014 -0.10431278 -0.011760987 0.06045144
0001b0 b0 b1 91 3d d8 a0 97 bd 6b e4 12 3e df c9 f6 3d
       0.07113969 -0.074037254 0.14344947 0.120502226
0001c0 85 33 fb bd ee 57 c5 bd 81 9a a0 bc 4b 33 e1 bc
       -0.12265686 -0.09635912 -0.019604923 -0.027490279
0001d0 e4 d7 ab bd 93 66 fa 3d 6a ad b9 bd e9 16 de 3d
       -0.08390787 0.12226596 -0.09066279 0.108442135
0001e0 01 38 cc bd f4 85 5b 3d 15 21 97 bd f3 71 8e 3d
       -0.099716194 0.053594545 -0.07379357 0.06955328
0001f0 99 5f f8 bb 50 f7 75 bd 9a 43 b7 3d 35 9a c6 bc
       -0.0075797555 -0.06005031 0.08948441 -0.024243454
000200 72 5a b1 3d c3 3d 36 3d 29 20 b1 3d 30 2b be 3b
       0.08659829 0.044492494 0.08648712 0.005803488
000210 32 0a 1c 3d 7e 3b f7 bd c5 82 fc 3c b8 23 a7 3c
       0.03809566 -0.12071894 0.030824075 0.020402774
000220 34 9b eb 3d a0 3d f8 bb 2b 7a d3 3d a0 44 b0 3d
       0.11504212 -0.0075757056 0.10326036 0.08606839
000230 ab 47 06 be 51 36 73 bc 37 6c 42 3d 68 e8 a3 bc
       -0.13113277 -0.014844493 0.047466483 -0.02000828
000240 1f c8 f1 3d 06 12 00 3d 1e d8 44 bd 4c 7e 90 bd
       0.11805748 0.03126719 -0.048057668 -0.07055339
000250 1c c8 23 3c 29 40 5c bd 00 07 01 3e d1 ef 5c bd
       0.00999644 -0.053772125 0.12600327 -0.053939644
000260 be 97 9c 3c 36 15 08 be 51 21 fb 3b 90 b1 02 be
       0.019115325 -0.13289341 0.0076638837 -0.12763047
000270 37 5d fd 3d 81 9b 43 bd a6 4a 94 3d 44 14 91 3d
       0.12371295 -0.047755722 0.072408006 0.070839435
000280 b6 8c f2 bd 03 9d be bc 86 bf 05 3e 1d a1 f9 bb
       -0.11843245 -0.023268228 0.13061342 -0.007618083
000290 1a 54 9e 3d b2 15 bf bd 7f 1a 6b bc 1a 30 b4 bd
       0.07730885 -0.0933031 -0.014349579 -0.08798237
0002a0 19 66 d6 3c d5 93 07 be 10 75 fb bd 6e fc 49 bd
       0.02617173 -0.13239987 -0.12278187 -0.049313
0002b0 8d 24 2a 3b 19 0f c9 3d ce 28 93 3d 75 bc cd 3b
       0.0025961727 0.09817333 0.07185517 0.0062785693
0002c0 7d 1c 05 be 72 28 f6 bd d5 fc 95 39 6d 7c 6b 3d
       -0.12999149 -0.12019433 0.0002860787 0.05749171
0002d0 f2 12 ca 3c 4d 00 00 3d 2b cf 51 3c f7 56 66 3d
       0.024667237 0.031250287 0.01280574 0.05623528
0002e0 fc da 7b 3d a7 28 60 bd f8 ba 94 3d 8a c6 42 3d
       0.061488137 -0.05472627 0.07262224 0.047552623
0002f0 d3 eb 7a 3c bd 97 f0 bd e1 1e cc bd f8 8f 3b 3d
       0.015315014 -0.11747692 -0.09966827 0.045791596
000300 08 4d 66 bc 61 6b f4 bb ed f3 66 bd 8c 7f 04 3e
       -0.014056452 -0.0074590896 -0.05638497 0.1293928
000310 ed f1 1d 3d f5 75 82 3d 2f d6 db 3c 82 a5 0f 3e
       0.038560797 0.06370155 0.02683553 0.1402798
000320 1a 1a c1 bd fa 32 77 bd 24 4c 83 3d 40 92 4c bc
       -0.094288066 -0.06035135 0.06411007 -0.012486041
000330 ab bd fe bb ab a9 68 3c a5 f6 47 3b 12 ee 27 bc
       -0.007774075 0.014200608 0.0030512002 -0.0102496315
000340 a1 6f c3 3d e3 d6 97 3d 7c 17 4f 3d 8d b1 e5 3d
       0.09542776 0.07414033 0.050559506 0.11215506
000350 af 65 f7 bd 63 19 07 be 56 fa ad 3d 21 75 57 bd
       -0.120799415 -0.13193278 0.084950134 -0.052601937
000360 7d 29 83 bd 94 5d 25 3b b4 96 af 3d 9a 82 d5 bc
       -0.06404398 0.002523278 0.08573666 -0.026063252
000370 4a dc 66 bd 19 5b c3 3d 6a db 8c 3d f8 83 91 bd
       -0.056362428 0.0953886 0.068777874 -0.07105249
000380 01 ed 30 3d 15 70 af 3b 45 e2 d5 bd f8 1d 14 3d
       0.043194775 0.0053539374 -0.10443548 0.036161393
000390 74 55 04 3c cd 53 02 bc 90 87 00 be c9 22 06 3e
       0.008077014 -0.00795455 -0.12551713 0.13099207
0003a0 eb 29 7c 3d 7b c4 15 bd 4d a4 06 bd c9 76 c2 3d
       0.061563414 -0.03656433 -0.032871533 0.09495313
0003b0 16 38 09 be 4f b3 2d bd 1a 8c 80 3d ad 09 ff 3d
       -0.13400301 -0.04240733 0.06276722 0.124530174
0003c0 f5 ad c1 3d 65 d9 f8 bb ad 92 00 be 6b 94 80 bc
       0.09457008 -0.007594275 -0.12555952 -0.015695771
0003d0 6d ad ca 3d 91 48 25 3d 62 b5 80 bd 2f cf f0 3d
       0.098963596 0.040352408 -0.06284596 0.11758267
0003e0 64 3c cd 3d eb bf bf bd 14 86 85 bd d8 93 86 3d
       0.10021284 -0.09362777 -0.06519714 0.06571168
0003f0 76 eb 25 bc 73 7e e5 bd 73 a2 1c 3b 15 b2 16 3e
       -0.010126939 -0.11205759 0.0023900538 0.1471637

sequential_4/conv2d_13/Conv2D i1 [16, 3, 3, 32]
000000 c2 2d 1c 38 e6 f9 e9 c6 53 61 17 d3 5f c3 b5 c3
       -62 45 28 56 -26 -7 -23 -58 83 97 23 -45 95 -61 -75 -61
000010 c9 6d e0 2d 23 d0 10 df f4 5f 39 14 1b d1 f8 f4
       -55 109 -32 45 35 -48 16 -33 -12 95 57 20 27 -47 -8 -12
000020 57 0e f0 e4 2d 45 fe 5e 2f f8 2a 3d 0c ea e1 3c
       87 14 -16 -28 45 69 -2 94 47 -8 42 61 12 -22 -31 60
000030 ba 47 0f 0f 34 d2 d6 df b5 a3 3d b4 46 e1 d4 23
       -70 71 15 15 52 -46 -42 -33 -75 -93 61 -76 70 -31 -44 35
000040 26 3e d9 32 d7 d9 49 ed c4 3d 03 d9 60 1b 34 ab
       38 62 -39 50 -41 -39 73 -19 -60 61 3 -39 96 27 52 -85
000050 c5 ba 8a ce e1 d4 04 1b ad 22 5f 41 4c 16 29 29
       -59 -70 -118 -50 -31 -44 4 27 -83 34 95 65 76 22 41 41
000060 63 6d 19 29 bf 37 a5 5a 0d 1d de 7f cb 08 25 cc
       99 109 25 41 -65 55 -91 90 13 29 -34 127 -53 8 37 -52
000070 e9 db fe e5 1f 76 fa 0b 5a 35 38 ca 63 59 e8 ff
       -23 -37 -2 -27 31 118 -6 11 90 53 56 -54 99 89 -24 -1
000080 02 58 d1 dc 0d f2 3c 1a 1b f0 30 14 41 5a a8 ad
       2 88 -47 -36 13 -14 60 26 27 -16 48 20 65 90 -88 -83
000090 5f 10 f0 a0 e7 b9 16 32 61 4e 03 15 12 ca 24 16
       95 16 -16 -96 -25 -71 22 50 97 78 3 21 18 -54 36 22
0000a0 23 15 d7 f5 bd 6e 52 4e af e4 b5 e1 ea 19 d2 86
       35 21 -41 -11 -67 110 82 78 -81 -28 -75 -31 -22 25 -46 -122
0000b0 0c 0b fe 39 d3 20 48 76 5a 15 49 c2 6e 4e 5f d9
       12 11 -2 57 -45 32 72 118 90 21 73 -62 110 78 95 -39
0000c0 26 d4 06 a7 04 3a e2 09 a2 51 d4 2d ae 73 0f b7
       38 -44 6 -89 4 58 -30 9 -94 81 -44 45 -82 115 15 -73
0000d0 26 0c e2 e7 e0 5e 3a 2f df f6 c7 29 48 d4 18 38
       38 12 -30 -25 -32 94 58 47 -33 -10 -57 41 72 -44 24 56
0000e0 a0 ab d7 4b f5 f5 ad e2 e9 b2 ed cc ad 16 1c 37
       -96 -85 -41 75 -11 -11 -83 -30 -23 -78 -19 -52 -83 22 28 55
0000f0 2a 2b d7 14 19 4a d3 69 dd fc f0 cb cb 72 f2 a3
       42 43 -41 20 25 74 -45 105 -35 -4 -16 -53 -53 114 -14 -93

sequential_4/conv2d_14/Conv2D i1 [8, 3, 3, 16]
000000 b9 0d c4 0b f5 4d 0f b1 1d 36 c6 2b b8 b0 ac a0
       -71 13 -60 11 -11 77 15 -79 29 54 -58 43 -72 -80 -84 -96
000010 f8 f2 9c 10 f0 c8 65 ff 28 2a 47 20 c3 9e eb b5
       -8 -14 -100 16 -16 -56 101 -1 40 42 71 32 -61 -98 -21 -75
000020 11 bc e6 fe b1 ae 27 1e 02 47 32 d2 cb 4b 05 41
       17 -68 -26 -2 -79 -82 39 30 2 71 50 -46 -53 75 5 65
000030 9e f6 45 fe 69 f5 c4 f6 a7 0e 2f e9 04 49 07 fc
       -98 -10 69 -2 105 -11 -60 -10 -89 14 47 -23 4 73 7 -4
000040 9c 51 1f b4 12 ed 3c c2 ea b2 b8 52 fc be 1b 5b
       -100 81 31 -76 18 -19 60 -62 -22 -78 -72 82 -4 -66 27 91
000050 1b 38 e5 44 22 25 f6 68 b0 48 b1 a1 d8 47 7f d7
       27 56 -27 68 34 37 -10 104 -80 72 -79 -95 -40 71 127 -41
000060 11 62 28 a7 aa 16 39 9e 5c b1 34 e0 b8 00 0a a4
       17 98 40 -89 -86 22 57 -98 92 -79 52 -32 -72 0 10 -92
000070 ad 15 3f 4c 64 9f ec 38 3b b5 20 0e 39 29 6f 0d
       -83 21 63 76 100 -97 -20 56 59 -75 32 14 57 41 111 13
000080 b2 dc 56 19 bb 5a 3e 4a fd 4a 0f 1b 5d f6 bb 4a
       -78 -36 86 25 -69 90 62 74 -3 74 15 27 93 -10 -69 74
000090 4a 6d 90 67 e8 c7 e2 ad c8 bf af 65 3e 96 b5 c9
       74 109 -112 103 -24 -57 -30 -83 -56 -65 -81 101 62 -106 -75 -55
0000a0 10 c0 10 d3 23 c2 1d d2 c2 c9 10 b8 ff a6 2c 14
       16 -64 16 -45 35 -62 29 -46 -62 -55 16 -72 -1 -90 44 20
0000b0 27 26 c3 b4 15 01 23 0a cc b5 05 24 f6 eb 09 4a
       39 38 -61 -76 21 1 35 10 -52 -75 5 36 -10 -21 9 74
0000c0 3c 52 31 07 66 18 4c eb f1 ff f7 44 f9 98 b0 9d
       60 82 49 7 102 24 76 -21 -15 -1 -9 68 -7 -104 -80 -99
0000d0 3a dc 29 1b 4d 74 25 08 d2 6f b2 b4 94 c3 74 15
       58 -36 41 27 77 116 37 8 -46 111 -78 -76 -108 -61 116 21
0000e0 6e b7 ca 63 c4 16 b7 ad 9f e1 9f 09 a2 0f 08 f1
       110 -73 -54 99 -60 22 -73 -83 -97 -31 -97 9 -94 15 8 -15
0000f0 cc 7c b2 1d 21 9f ff dc b1 10 5e 41 58 bb 57 9f
       -52 124 -78 29 33 -97 -1 -36 -79 16 94 65 88 -69 87 -97
