ml/tomato/planticure_model_tomato.tflite (tflite, 836748 bytes, 10 tensors)

dense_1/bias f4 [6]
00000000: f19f 0f3d 6173 623b 0c93 e7b6 42ac 45bc
00000010: bb27 5ebb 33c2 c2bc
0.03506464 0.0034553634 -6.901455e-06 -0.012064995 -0.0033898193 -0.023774242

dense/bias f4 [128]
00000000: b22f 083d a386 60bb 2bbf 813b 5b3f d53c
00000010: 8204 a6b9 58c0 f7bb 0de6 4f3c 6ae1 b93a
00000020: e504 8bba 792f db3c dab2 a93a 1399 e33c
00000030: e0e6 eb3b b653 e13c 6077 0cbc 99b1 28bc
00000040: 16f0 c43c 43cd 323d fdfa d53a 216c c4bc
00000050: 3cf1 9ebb 97d8 01bd 01cb 6cbc e1b5 253c
00000060: 2314 9ebb a865 033d d7f8 37bb f9bf 89ba
00000070: f9e2 a9bc f878 a63b f9c9 33bc f229 61bb
00000080: adc9 95bc a55f a73c 18ca 88bc 4c67 c4bc
00000090: 2994 513c 4617 44bc b5b3 733c 2ec9 3d3a
000000a0: 8704 803c ac1f a4bc 1b78 523c 8462 8d3b
000000b0: 0565 cfba 1b58 f4bc f7b5 78bb 1419 a33c
000000c0: db32 5b3c a774 0e3c 57e0 e8bb 7118 003b
000000d0: afbd d6ba 77af 22bb 2a59 39bc 1147 8f3c
000000e0: 6f52 c53c 5cc4 82bc 3072 eb3c 3c91 0d3d
000000f0: 5dd2 103c a3f5 45bc 4d1b 0dbc 0b34 e1b9
00000100: dfcf 3fbb bdff e93c 174d 4dbc 8627 80bc
00000110: 5de8 77bb 85d6 f5bc a4ee ee3b 97ad 55bb
00000120: 247a 713b 066c 553c 2e23 75bb a354 bf3c
00000130: f2fd 04bd 4ab5 e9bc 4843 443c e8b0 b7bb
00000140: ec16 b2bc 716d 0e3c 2907 e3bc 111e 4d3d
00000150: 9cb2 92bc bfda 83bc cc7f 65bb 20cc 283c
00000160: 96c9 9d3c fad2 8ebc 9234 173d 5dbd 17bb
00000170: 17a9 e4ba 8db7 903c d9e4 e4bc 938f 443c
00000180: 401f cb3c 07d6 023d 37ac 343d ab05 033d
00000190: b8a0 dcbc 7209 82bc a8b8 c53c 5ce0 48bb
000001a0: fb5d 60bb 7a1d 18bc c47f 0dbc 7be7 fa3c
000001b0: 8e55 bfbb 7f9b 21bb 99d9 b03c 4345 b03b
000001c0: 1659 043c 9a24 993b 9497 113b f8cd 023c
000001d0: 9566 dd3c 7a26 77bb afda 11bc 4787 85bc
000001e0: 5044 583c 3ee7 6f3c a899 353d f4ca ddbc
000001f0: 0564 13bb ceef aabc a367 b03b 3fa9 0bbc
0.03324861 -0.0034259937 0.0039595566 0.026031187 -0.00031665346 -0.007560771 0.012689126 0.0014181559
-0.0010606317 0.026756035 0.0012946979 0.027782952 0.0071991533 0.027505737 -0.008573383 -0.010296249
0.024040263 0.043652784 0.0016325411 -0.023977341 -0.0048505347 -0.031700697 -0.014452697 0.010114164
-0.004824178 0.03207937 -0.0028071904 -0.0010509483 -0.020738112 0.0050803386 -0.010973447 -0.0034357277
-0.018284643 0.020431349 -0.016697928 -0.023975037 0.012791672 -0.011968439 0.014874388 0.0007239756
0.015627159 -0.020034634 0.012846018 0.0043147225 -0.0015822953 -0.029827168 -0.0037950256 0.01990942
0.013378824 0.008694804 -0.0071068215 0.0019545818 -0.0016383434 -0.0024823823 -0.011312762 0.017489942
0.024087159 -0.015962772 0.028740972 0.034562334 0.008839217 -0.01208249 -0.008612466 -0.0004295412
-0.0029268188 0.028564328 -0.012530587 -0.015643846 -0.0037827708 -0.030009517 0.007291632 -0.0032604688
0.0036846483 0.013026243 -0.0037405002 0.023355788 -0.032468744 -0.028528828 0.011978932 -0.0056058057
-0.021739446 0.008693085 -0.027713375 0.0500775 -0.017907433 -0.016095517 -0.00350188 0.010302573
0.019261163 -0.017434586 0.03691537 -0.002315364 -0.0017445412 0.017665649 -0.027941154 0.011997121
0.024795175 0.031942394 0.04410955 0.031987827 -0.026932105 -0.015873645 0.024135903 -0.0030651307
-0.0034235704 -0.0092843715 -0.008636419 0.030627957 -0.0058390563 -0.0024659333 0.021588134 0.0053793504
0.00807788 0.0046735527 0.0022215592 0.007983677 0.027026454 -0.0037712143 -0.008902236 -0.016299857
0.013199881 0.014642535 0.04433599 -0.027074315 -0.0022490036 -0.0208663 0.005383448 -0.008524238

conv2d_2/bias f4 [8]
00000000: f279 a83c 6cbd 373b aabf b6bc 85a1 ecbb
00000010: e2ee 423c 997e a5bc ebc7 663c 3a11 c5bc
0.02056596 0.0028036488 -0.02230819 -0.007221403 0.011897774 -0.020201968 0.01408575 -0.024056066

conv2d_1/bias f4 [16]
00000000: 18fe 513c 06a7 6b3c 0fc1 a239 8317 f5bc
00000010: 5ca8 803c 9b36 f03c 2d3d dbbc 07c9 4d3b
00000020: 8592 6e3c e94c 873c ae0e 22bb 656f 5a3c
00000030: f959 233b 35a4 a0bc 82bc 9d3c b424 6abc
0.012816928 0.014383083 0.00031042888 -0.029918438 0.01570528 0.029322913 -0.02676257 0.003140034
0.0145613 0.016516166 -0.0024727988 0.013332223 0.0024925454 -0.01960955 0.019254927 -0.014290977

conv2d/bias f4 [32]
00000000: afaa c93b ada4 093d 4b87 69bb 09e0 60bc
00000010: 834b 0c3b 77bc 9a3d d6a1 81bb ead0 61bb
00000020: d2f6 4a3d 22c4 a4ba bc66 32bc 66e7 0fbd
00000030: 5e64 9cbb 7005 3c3c bed2 0fba fa66 29bc
00000040: dd1b 8c3c c003 b63a 1cec cf3a 43f0 983c
00000050: ff4f cd3a 59c7 8a3c 92bd 8f3a d75a 1b3c
00000060: eace cc3c 8152 5ebc e648 883b eb5b 2e3c
00000070: 2f59 1c3d 90fd bcbb 19bf 30bc 3814 90bc
0.0061543803 0.033604313 -0.003563362 -0.013725289 0.0021407313 0.07555478 -0.00395606 -0.0034456798
0.049551792 -0.0012570659 -0.010888752 -0.035132788 -0.004772707 0.011475906 -0.000548642 -0.010339493
0.01710313 0.0013886616 0.0015863213 0.018669253 0.00156641 0.01694076 0.001096653 0.009482107
0.025001008 -0.013569475 0.004159081 0.010642032 0.03817099 -0.0057675317 -0.010787749 -0.017587766

sequential/dense/MatMul f4 [128, 1568]
00000000: ea17 aebd ce08 fc3c 2367 1a3d 80af a83d
00000010: a494 22bd a382 253c 65e6 823b 8f45 833a
00000020: 77f0 69bd 8006 183c bd96 853c 32c6 0b3d
00000030: 86df 32bc 0471 443d 767a c93b eae4 9bbc
00000040: e25d 99bd c0b5 c1bc 5fcf c8bc 4c9b bd3b
00000050: c66a ee3a 98de 573d b040 82bd 449c 50bc
00000060: 9c51 92bc 677f 4f3a 5bb4 a93c 30f5 0f3d
00000070: 8d6b e8bc 387a 803d 23fa 58bd 63fd 833d
00000080: bf52 1c3b e22b 80bc 704f 20bd be75 cf3c
00000090: 9095 27bd 114a c3bc 6649 263d 353a 293c
000000a0: 4798 24bc 318c d1bc 5701 33bd 4602 1c3d
000000b0: 909a afbc 7b40 943d 74e9 72bd fe98 67bd
000000c0: 8ddf 373d fbc6 8a39 3109 d93c 0a18 943c
000000d0: ed52 933c b3df e23c 8765 723d 988a 653d
000000e0: 41f3 10bd c241 0e3d b5f9 5cbd 9dc9 8b3d
000000f0: f6a0 f8bb abbf e13c 9d1b 04bc c96c 14bd
00000100: 1aa1 cebc 6518 1c3d 0f71 523c 2dc3 903d
00000110: 5d04 1a3d e6cb b93c f315 343d 9284 21bb
00000120: 2d88 87bd ac30 ecbc 4886 4d3d 0b01 d33c
00000130: f283 04bb 57db bb3c 4795 bf3c 2f08 5fbd
00000140: 84f3 b2bb e847 f7bc 5980 143d 430c 3a3a
00000150: b593 f93c df42 ac3d ea1a 493d de7f adbc
00000160: 8004 9dbd e01f 813b 223d 7ebd 35ea 2f3d
00000170: b891 a23c 4ee6 3c3c 7782 36bd ee6b 19bd
00000180: 331d 4dbd bb41 c5bc 3e5f d6bc e77f c73c
00000190: 461f 033d 99c4 893c 882e 99bd 8d94 6b3d
000001a0: 2412 9dbc 04ad 94bc 6cda b03c fffd bf3c
000001b0: 610d 4bbd efca 3e3d 0bb7 77bd 7c72 003d
000001c0: 4fde 88bc 1ea6 4c3d 9cbd adbc 3e7b 41bc
000001d0: 5340 17bd d5cd 353d 8148 2c3d bf00 52bd
000001e0: b02f 103c b50b d93c 345e c23c b3c9 f4bc
000001f0: 65a0 b4bc 81ed 3cbc e45b 163c 5ed2 3cbd
00000200: 101e a1bc 8578 783c 675a 53bc 3846 d2bc
00000210: 7a3b 0d3d 9450 463d 45e0 5bbd d1df 243d
00000220: 43c7 ebbc e4fb 103c c98a b83c 20f4 353b
00000230: 6e3e c4bc ce64 963d b8c4 8cbd ad5c 3ebc
00000240: f5da d8bc f3c8 4b3d 832c 5e3d c80b cb3c
00000250: c2e8 03bd 108c 973d 3bbc 12bd 4676 213d
00000260: 96ba 0bbc f925 2a3d 83f1 8e3c 17cf 953d
00000270: ce17 793d 3b72 123d 6fd6 0abd d2c5 403c
00000280: 94ba f0bc 46ca 47bd a484 0b3d 0271 993d
00000290: a292 323c afa2 b1bc a3de 65bd 7e13 da3b
000002a0: 761c 19bd 62cc 28bd a4d7 4dbd 7afd 04bd
000002b0: aa14 853c 497b 593d 6eb5 623c df8b 7b3d
000002c0: 17fb 643c da36 c2bc df0e 793d 65f6 2d3c
000002d0: 7d41 4a3d 4c32 003d 7cfb c7bc f3a2 31bc
000002e0: fbac 2bba 6817 05bd 07aa 533d e580 2e3d
000002f0: 33d7 03bd c9fd c9bc f2ee 32bd ff1f 213d
00000300: 5dff 273d d69b 1fbd 4632 2d3d 4999 e7bc
00000310: 44a9 25bd 9034 2dbc 641b ce3c e997 c03c
00000320: 32ca c93c b7f2 2bbd 4387 123b 604f 03bd
00000330: e76f 88bc 09d0 8a3c 90ed 6abd 0c10 4ebd
00000340: ddf4 e9bb d08b ccbc dc5e 2a3c 7786 333d
00000350: 8ec3 a73b 855d 8d3c cbf9 07bd c9b1 6d3b
00000360: 3572 2abd 3828 45bc 4c22 213d 9ed4 263d
00000370: 5c80 d03c 07f3 883d 0482 453c c39c 33bc
00000380: a714 47bc 14fc 593d 1cc8 36bc 2a23 cc3c
00000390: 367c 513d 508a a83d 1d1d e4bc 0cf1 343c
000003a0: 7361 423c 4152 93bb 11a0 07bd 9cb3 463d
000003b0: 9420 0dbd ed70 e23c 5b52 c73c 418d 483d
000003c0: af59 92bd 627f 4f3a f122 e4bc 8c9b 5b3d
000003d0: 26b0 a63c 472b 6239 6639 983c 3591 cabc
000003e0: 9388 353d 122e d3bc 9d5f 45bc 6ba5 71bc
000003f0: 70fe 1abd 85e0 533b 4a7b 0ebc 2c42 84bc
-0.08500655 0.030765917 0.037696015 0.08236599 -0.039692536 0.010101947 0.0039947503 0.0010015237
-0.05711409 0.0092788935 0.01630723 0.03412456 -0.01091755 0.047959343 0.0061486317 -0.019030053
-0.0748861 -0.023646235 -0.024512945 0.005786335 0.001818978 0.052702516 -0.063599944 -0.012732569
-0.01786118 0.0007915408 0.020715883 0.03514594 -0.028371597 0.062733114 -0.052972924 0.06444814
0.0023853031 -0.015645925 -0.039138258 0.025324699 -0.04091412 -0.023839029 0.040597342 0.010328819
-0.010046071 -0.025579544 -0.04370245 0.038088106 -0.021436006 0.07238861 -0.05930467 -0.05654239
0.04489093 0.00026469663 0.02649364 0.018077869 0.017983878 0.027694559 0.059178855 0.056040376
-0.035388235 0.03473068 -0.053949077 0.06825564 -0.0075875474 0.027557215 -0.008063224 -0.036236558
-0.025223304 0.038109202 0.012844338 0.07068477 0.037601817 0.022680234 0.043966245 -0.0024645668
-0.0661777 -0.028831802 0.05017689 0.025757333 -0.0020220247 0.022931738 0.02338661 -0.054451164
-0.005461158 -0.030185655 0.036255214 0.0007097164 0.03046594 0.08411192 0.049097933 -0.021179136
-0.07666874 0.0039405674 -0.06207002 0.042947967 0.019844875 0.011529518 -0.044558015 -0.037456445
-0.050076675 -0.024079194 -0.026168462 0.02435298 0.032012247 0.016817378 -0.07479578 0.057514716
-0.01917369 -0.018148907 0.021588527 0.023436544 -0.049573306 0.04658025 -0.060477298 0.03135918
-0.016707567 0.04996311 -0.021208577 -0.011809168 -0.03692658 0.04438575 0.042061333 -0.051270243
0.008800432 0.02649484 0.02372656 -0.029881334 -0.022049138 -0.011531235 0.009177182 -0.04609906
-0.019667655 0.015165453 -0.012899972 -0.025668249 0.03448055 0.04841669 -0.053680677 0.04025251
-0.028781539 0.008849118 0.022527115 0.0027763918 -0.02395555 0.07343446 -0.068734586 -0.011618775
-0.026471594 0.049752187 0.05424167 0.024785891 -0.032204397 0.07399762 -0.03582404 0.039419435
-0.008528372 0.04154012 0.017449146 0.0731489 0.060813718 0.03575347 -0.033895906 0.011765914
-0.029385842 -0.048776887 0.034062043 0.07492258 0.010899218 -0.021684019 -0.056120526 0.0066551557
-0.037380658 -0.04121054 -0.05025448 -0.032468297 0.016245205 0.05309609 0.0138372015 0.06141269
0.01397588 -0.023707796 0.060805198 0.010617827 0.04937886 0.031297967 -0.02441191 -0.010842073
-0.00065489084 -0.032493025 0.051675823 0.042603392 -0.03218765 -0.024657147 -0.043684907 0.039337154
0.041015018 -0.038966976 0.042284273 -0.028271334 -0.040444627 -0.010571614 0.025159545 0.023509936
0.024632547 -0.041979518 0.0022358454 -0.03205812 -0.016654922 0.016944902 -0.057355464 -0.050308272
-0.0071397857 -0.024969012 0.010398593 0.043829408 0.0051197475 0.017256508 -0.033197206 0.0036269298
-0.041612823 -0.012033515 0.03933935 0.04073011 0.025451832 0.06686979 0.012054924 -0.010962668
-0.01215092 0.053218916 -0.011156108 0.024919111 0.051143847 0.08229506 -0.027845914 0.011043798
0.011864054 -0.0044958894 -0.033111636 0.048511133 -0.034454897 0.027641738 0.024331262 0.048962835
-0.07146012 0.0007915405 -0.027848693 0.053615138 0.020347666 0.00021569162 0.018582057 -0.024727443
0.0443197 -0.025778804 -0.012046722 -0.014748911 -0.037840307 0.003232987 -0.008696387 -0.016144834

sequential/dense_1/MatMul f4 [6, 128]
00000000: 2652 163e 9d04 123b 8f2e 373a e969 393d
00000010: 138c 3fbe 0a6f 38be 79d0 353e d7ad 1cbd
00000020: 921b 21bc f8ba 2f3e f780 61bd 93c6 d63d
00000030: fb48 3d3c 783a 273e 41ee b4bc 16c1 0cbd
00000040: d737 913d e393 4f3e ef5d 123d 5744 003e
00000050: 7815 263d 24a5 49be 577b 27be ede1 77bc
00000060: 08b5 c83d cf89 863e 14a0 233e 14ab 08bd
00000070: c357 56be b9ab 993d 88b6 bb3d bb11 5c3d
00000080: 9c98 71be 5072 b23d 7866 bcbd d030 02be
00000090: 45f2 193e 9591 0ebe 268a aebd 4861 33bd
000000a0: 53cc 3a3c 3edb 3abe 3371 f13d cbb1 053d
000000b0: 52f8 5cbd 66ef 1bbe 5294 293e 139c b4bd
000000c0: 0cbe 1ebd 0e5b b03d 5dad 0bbe 4115 ecbc
000000d0: ed97 99bd 5da3 1cbe 4cfb a03d 8060 863d
000000e0: c442 4f3e 8874 d43d 305a d03c a1bf 463e
000000f0: 91bc 06be 8051 1fbe fe06 b3bd 8a4d 483d
00000100: 57b4 4fbe 706e 4d3e 8e7e 47be d668 30be
00000110: c909 8cbd 9adb fdbd e995 e03d 59e7 153c
00000120: 75f3 ecbc bd3f 443e d549 1fbe 7c90 0e3e
00000130: 3ca9 ffbd 29ac 07bd 1f5d f4bc c349 50be
00000140: 19c4 96bd 6f5e 0cbe 4227 2bbe d242 b53d
00000150: 3eca 86bd ab20 83be 9ade 27be 390b 183e
00000160: d020 403e ccf6 02be cead 533e f92d 39be
00000170: 81c8 5f3d 79fb 733e 5f0b 6dbe 4415 4a3e
00000180: b442 d03d f4bc 203e 2aba ad3d 0940 823d
00000190: 12d6 2ebe a1d7 94bd 0173 ee3c fe5a 163e
000001a0: bef7 bbbd d195 29be 8c20 90bc 582d 0d3e
000001b0: e0e6 abbd 15f1 52bd e123 143d 06e9 273e
000001c0: 03b9 b93d 7ab5 233e cf0f a9bd 6960 4d3e
000001d0: bcb8 7d3d 4563 b8bd 1e54 0bbd f946 053e
000001e0: 62cc 213d 19a7 e93d 30b6 693e 9ed1 f5bd
000001f0: e20c 083c 29ce 46be 7abe ca3d 1ecc 5b3c
00000200: 4dc1 193d 2949 b23d b08f 60bc c2ba 303e
00000210: 416f 2f3e e6a7 d73d ba64 08be f9f7 e9bd
00000220: 9fa3 51be 05d2 983d a4e4 193e a693 5a3e
00000230: f68c 523e 4525 1f39 a145 58be ae5c f1bd
00000240: ee7f 01bd 78e5 1b3e 9f7e 21bc 29c3 cd3d
00000250: 0686 1cbe 9f00 22bd 8f66 cdbd 9691 15be
00000260: 0387 2e3e 6a5b 023e 7060 37bd 4871 7a3d
00000270: 5007 67bc 8d57 adbd 9ede 173e c71c f43b
00000280: 4ce5 34bd 7ad8 3e3d 8724 24be e0cb 8e3c
00000290: 5420 04be 98f1 26bd b207 2dbe 85d0 e8bd
000002a0: f5a6 0cbd 591a 25bd a0e9 42bc b527 f1bd
000002b0: 1ffe b9bd 4118 283e d862 253d 18dc f93d
000002c0: c40e 4c3e d4d6 473e 9f75 3a3e d3f1 843c
000002d0: af13 183e 737d 22be bbcd 053d 76ef 103e
000002e0: 31fd 1bbe 96b4 9cbc a011 2a3c 5098 033e
000002f0: ef89 0ebe cf55 31be b9d9 13be 8d3e 60be
00000300: 0e8d 30bd d46e c7bc 6809 ba3d b50b 3b3e
00000310: 1f42 d0bd 230f 9abc f7ec 78be f268 103d
00000320: b38c 02be f4bf 633d c8c1 713d 41d7 50bd
00000330: a0c9 08bd 4e90 163d f7ba 66be 92df c63a
00000340: 9e49 16be 927f a33d b012 f0bd 9e6b 73bd
00000350: 63be 68be afb3 1cbe a91f 583d e394 dcbd
00000360: 725d 013d 8bd8 37be 9601 683c 7d20 be3d
00000370: e4ba 90bd e5ca ca3d b974 fdbd 902f 32be
00000380: 88f1 8dbd fc32 ba3d a264 28be 911e 693d
00000390: 3c45 15bd ef40 453e 7738 6e3d bbec 443e
000003a0: cf0f 463e 9faa 313d 946f 753d c75f ca3d
000003b0: 0494 56be 2aaf 2dbc 2b06 2bbd 6388 bbbd
000003c0: 8101 fbbd 2f68 36bd 1805 dd3d 9adf 423e
000003d0: 1101 513e db41 9a3d b075 963d b982 99bd
000003e0: 6f03 51be fe9e 4dbe 409d c4bc aa83 0bbe
000003f0: 4e3b 2d3e deb5 4abe a9fd 5bbe 591d 593e
0.14679775 0.0022280582 0.0006987834 0.04526702 -0.18705778 -0.18011108 0.17755307 -0.038251724
-0.009833233 0.17161167 -0.05505463 0.10487094 0.011553044 0.16330898 -0.022086265 -0.03436383
0.07090729 0.20271258 0.035734113 0.1252607 0.040547818 -0.19691902 -0.16355644 -0.0151295485
0.09800154 0.26277015 0.15979034 -0.033366278 -0.20931916 0.075034566 0.091656744 0.053727847
-0.23593372 0.0871321 -0.09199232 -0.12713933 0.15033825 -0.13922723 -0.085224435 -0.043793947
0.011401254 -0.18247697 0.11789169 0.03264026 -0.053947754 -0.15228042 0.16560486 -0.08818831
-0.03875546 0.08611117 -0.13640352 -0.028818728 -0.07499681 -0.15296693 0.07860431 0.06561375
0.20240313 0.10373789 0.02543363 0.19409038 -0.1315787 -0.15558434 -0.08741568 0.048902072
-0.20283638 0.2006166 -0.1948187 -0.17227492 -0.06837804 -0.12395401 0.10966093 0.009149396
-0.028924683 0.19164939 -0.15555508 0.13922304 -0.12483451 -0.03312317 -0.02982956 -0.20340638
-0.073616214 -0.13707899 -0.16714194 0.088506356 -0.065815434 -0.2561086 -0.1639351 0.14848031
0.18762517 -0.12789458 0.2067177 -0.18083943 0.054634575 0.23826398 -0.23148869 0.19734675
0.101689726 0.1569708 0.084827736 0.0635987 -0.17073849 -0.072676904 0.029107573 0.14683148
-0.091781124 -0.16561057 -0.017593645 0.13786829 -0.08393645 -0.051499445 0.03616703 0.16397485
0.09068491 0.15987197 -0.082549684 0.20056309 0.061943755 -0.09003309 -0.034015767 0.13015355
0.039501555 0.114088245 0.22823405 -0.12002872 0.008303853 -0.19414581 0.09899612 0.013415365
0.03753786 0.087053604 -0.013706133 0.17258742 0.17132284 0.10530071 -0.13319674 -0.1142425
-0.20472573 0.07461933 0.15028626 0.21345386 0.20561585 0.00015177306 -0.21120311 -0.11785255
-0.031616144 0.15224254 -0.009856849 0.100469895 -0.15285501 -0.039551374 -0.10029327 -0.14606318
0.1704369 0.12730184 -0.044769704 0.06114319 -0.0141008645 -0.084639646 0.14831015 0.0074497196
-0.044163987 0.046593167 -0.16029559 0.0174312 -0.12902957 -0.040757746 -0.16897467 -0.11367897
-0.03433891 -0.04030833 -0.011896521 -0.11775152 -0.09081673 0.16415502 0.040377468 0.12200183
0.19927508 0.19515544 0.18208931 0.016228592 0.14851259 -0.15868168 0.032666903 0.14153847
-0.15233304 -0.019129079 0.010380179 0.12851071 -0.13919805 -0.1731789 -0.14438523 -0.21898861
-0.04310327 -0.02434484 0.09083825 0.18266185 -0.101688616 -0.018806046 -0.24309145 0.035256334
-0.12748985 0.055602983 0.059022695 -0.050986532 -0.03339541 0.036758713 -0.22532259 0.001517283
-0.1467652 0.079833165 -0.11722314 -0.059428804 -0.22728877 -0.15302919 0.05276457 -0.107705854
0.031583257 -0.17953698 0.014160534 0.092835404 -0.070668966 0.0990198 -0.12375779 -0.17400956
-0.06930834 0.09091756 -0.16444638 0.056913916 -0.03644298 0.19263051 0.058159318 0.1923093
0.19341968 0.043375608 0.059920862 0.09881549 -0.20954901 -0.010600844 -0.04175393 -0.09156873
-0.12256146 -0.04453295 0.10791987 0.1903061 0.20410563 0.07532092 0.07346666 -0.074956365
-0.20411466 -0.20080182 -0.024000764 -0.13624445 0.16917154 -0.1979594 -0.21483482 0.21202601

sequential/conv2d/Conv2D f4 [32, 3, 3, 3]
00000000: fd38 98bb a32b 343e 776e c33c a1f1 9a3d
00000010: e229 df3d 7c46 b3bd 66ae b2bb 93e1 81bb
00000020: 88a6 fe3d 1fdc b2bd c72b 6bbd 0b54 eabc
00000030: b238 aa3d ef95 c0bc cc70 a63d 330a 063d
00000040: d3e6 8cbd 8623 ec38 17ed e13d 870d 2d3c
00000050: d66e 2e3d ff4f 15be 6d58 87bd d11f b4bd
00000060: c03d 07be 567b d9bd cbea d0bd c70d aabd
00000070: ca86 38bd 0322 79bb 65cf 593d d78d 053e
00000080: 0d12 b2bd 6498 5e3d d12a 4e3c 3181 d7bd
00000090: 5357 863d d34e 2dbd 44d2 383c 86c5 b83d
000000a0: baa9 fdbd 69e9 4d3d 600a b73d f4f3 3fbd
000000b0: 21bf 03be fba8 b7bb eb08 f6bd 5877 1cbd
000000c0: 6bd1 ff3d 6355 e53d 98ac 0d3e 1598 43bd
000000d0: d7fd edbd b5ae e53c 9a7d e3bd dec3 e7bc
000000e0: 0477 7c3a 181d 49bd be7d e8bd 5144 c53d
000000f0: 8775 f03d e377 073b 3c5d 1b3e 1b00 c43d
00000100: 8236 35bd 1943 f5bd 07a3 443b ed5a 82bd
00000110: c3d4 87bd 2302 0fbe 8878 c4bd 1823 3ebd
00000120: 4568 45bd 2394 e93d 9246 ef3c a5bf 0b3e
00000130: 4742 8e3d c982 093e 1d80 24bd d2f1 74bd
00000140: e189 133e dd71 e03d 2b67 e63d 549b f13b
00000150: 1a15 7a3d 7169 543d 4a40 223d c1cd 02be
00000160: 5e2b 7a3d 725d ca3d 96ec e23d 3bd9 a53d
00000170: 20fe ec3c 6f25 3c3d da7b e1bd 1947 9ebd
00000180: d7bc e6bd aa1e 5f3d 3527 1d3d c02a 02be
00000190: 19e1 33bd 1c7d 43bb b27d 4ebd 6f8b 0fbd
000001a0: cf3e 06bd 9e85 1bbe 2332 d3bc c4ee a83d
000001b0: ee25 b5bd 2dd4 383d 366f 8bbd 1a4e 113e
000001c0: ae83 083e b0cf 913d ac8e 9cbd 0608 57bd
000001d0: 17f4 a4bd 4d93 b2bd 3611 7d3d a0b6 9a3d
000001e0: c0d3 583d 3478 c9bd 6fcb a6bc 8664 48bd
000001f0: 7e1b 86bd 4f87 41bd 9367 01bc c0be bebd
00000200: 26d8 963d f221 5c3b f5fc b43d ebc5 e8bd
00000210: b0eb 893d 1bf7 e03c 7234 5ebd e908 813c
00000220: fa2d ddbd d551 0abd cd10 0cbc f461 0bbe
00000230: e595 1abd 6588 2dbd 438f c8bd 3bf6 35bd
00000240: 03d4 80bd ec18 c5bd abd2 5ebd 1890 6c3d
00000250: 6b7b a6bc f899 d4bc 2022 38bd 5a9b cf3d
00000260: 5c69 b83d e975 ae3c 9785 67bd 7020 693d
00000270: b967 00bd c88c a0bd 8044 003e fcd4 a33d
00000280: 4bc7 f53b 929d 093d 5c71 03be 5723 d93c
00000290: e384 3b3c 3c3f c43d 5c8d 13bd fb91 ea3d
000002a0: 7455 183d b2f0 0bbc 5ee4 a13c 50c6 a3bc
000002b0: ea29 a43d a3be 6e3d 371e 49bd 2e48 b83d
000002c0: 3a91 443d 9be1 c53d c3d2 6d3b cb5a a6bc
000002d0: d008 ca3d 82bc 8e3d 8505 1abe 54b0 4c3c
000002e0: 9802 8a3d 2be4 f13d be77 a83d 0b48 36bd
000002f0: d6fc 473d 15c0 ec3c 1791 ddbc 609a d2bd
00000300: d377 823d 3bba 083d aac4 163e 79d4 94bc
00000310: d7b2 463d 83e3 483d 98f2 0bbe 1049 d4bd
00000320: 29fc 093e b65a 7fbc 551c 04bc fcff d3bd
00000330: 4fb9 2f3d e19b 0c3e 4e60 9fbc 74ec be3c
00000340: 032c e73c 3eeb ee3d 7018 81bc 6ede fcbd
00000350: dd1a 99bd 161e d8bd d8bd 823d ef6e b7bc
00000360: 963d 91bd e072 9ebd 73cc 173d 5ecc 093e
00000370: 5db1 3f3d 0d56 823d 17c3 043e 120b 81bc
00000380: ff3c 283e c718 57bd e217 88bd 4f65 17bd
00000390: 3304 8ebd 4d7f b2bd 5035 213c ee6f 2c3d
000003a0: 04ee 46bd a37e b4bd 562b 09bd b4ef 20bd
000003b0: 87f6 4f3d 258d 28bc 72ba b03d efc5 bebd
000003c0: bbf8 22be 7783 adbd 6938 69bd 28c5 b9bb
000003d0: 9604 ecbd 67bc 063e 2db8 ba3d b4e9 54bc
000003e0: 2d68 373c d60c 4b3b 8257 033e cfb1 2cbb
000003f0: d8c8 a13d 597c 873d 425c e3bd 3d23 01be
-0.0046454654 0.17594771 0.023856385 0.07565618 0.108966604 -0.08753678 -0.005452919 -0.003963658
0.12434107 -0.08733391 -0.057414796 -0.028604528 0.08311595 -0.023508994 0.08126983 0.03272457
-0.06879964 0.00011259974 0.110315494 0.010562307 0.04258617 -0.14581297 -0.06608663 -0.08795131
-0.1320715 -0.106192276 -0.10201033 -0.08303409 -0.04505042 -0.0038014657 0.053176302 0.13042389
-0.08694849 0.05434455 0.01258345 -0.10522688 0.065596245 -0.0423115 0.0112806 0.090220496
-0.123858884 0.050271425 0.08937526 -0.04686351 -0.12865879 -0.005604861 -0.1201342 -0.038199753
0.12491115 0.11197927 0.1383537 -0.04775246 -0.11620682 0.028037408 -0.11107941 -0.028291639
0.0009630772 -0.04910001 -0.113521084 0.09632171 0.117411666 0.0020670823 0.15172285 0.095703326
-0.044241436 -0.119756885 0.0030004398 -0.06364999 -0.06632378 -0.13965659 -0.09593302 -0.046420187
-0.048195142 0.11405208 0.029208455 0.13647325 0.06946235 0.13428797 -0.04016124 -0.05980093
0.14408065 0.10959218 0.112501465 0.007373253 0.06105528 0.05185837 0.039612092 -0.12773801
0.061076514 0.098811045 0.110802814 0.08098074 0.02892977 0.045934137 -0.11009951 -0.077284046
-0.11266487 0.054472603 0.03836747 -0.1271162 -0.04391584 -0.002982921 -0.05041284 -0.035045084
-0.032774743 -0.1518769 -0.025780743 0.08248666 -0.08845125 0.04512422 -0.06808321 0.1418995
0.13331482 0.07119691 -0.076444 -0.052497886 -0.08054369 -0.08719502 0.06178399 0.07554364
0.052936316 -0.0983738 -0.020360677 -0.04892399 -0.065482125 -0.04724818 -0.007898229 -0.093137264
0.07365446 0.003358957 0.0883731 -0.11365875 0.06734407 0.02746158 -0.054249234 0.015751319
-0.10799785 -0.033769447 -0.0085489275 -0.13611585 -0.037740607 -0.042366404 -0.0979295 -0.044424277
-0.06290438 -0.09623894 -0.054400127 0.057754606 -0.020322522 -0.025952324 -0.04495442 0.10137053
0.09004471 0.021296458 -0.056523886 0.0569157 -0.031348918 -0.07839352 0.1252613 0.07999608
0.007500564 0.033597536 -0.12836212 0.02650611 0.011445257 0.095823735 -0.036023483 0.11453625
0.03719087 -0.008541273 0.019762214 -0.019992024 0.08015807 0.058287274 -0.04910108 0.08998142
0.04799006 0.096621715 0.0036288954 -0.020306965 0.09864962 0.06969549 -0.15041168 0.012493212
0.06738776 0.11811098 0.08225964 -0.0445023 0.048825108 0.028900186 -0.027046723 -0.10283351
0.06370511 0.03338073 0.14723459 -0.018167721 0.0485104 0.049045097 -0.13666761 -0.10365498
0.13475098 -0.015585592 -0.0080633955 -0.103515595 0.042901333 0.13731338 -0.019455101 0.023306109
0.028219229 0.11665963 -0.015758723 -0.123471126 -0.07475827 -0.105526134 0.06383866 -0.022391764
-0.07091825 -0.077367544 0.037060212 0.13456866 0.046800006 0.06364069 0.12965046 -0.015752349
0.16429518 -0.052513864 -0.0664518 -0.03696185 -0.06934395 -0.08715687 0.009839371 0.042098932
-0.048566833 -0.088132165 -0.033488594 -0.0392911 0.050772216 -0.010287558 0.086293116 -0.093150966
-0.15915196 -0.084723406 -0.056938563 -0.005669255 -0.11524312 0.13157807 0.0911716 -0.012995172
0.011194271 0.0030982993 0.1282635 -0.00263511 0.07899636 0.06615514 -0.11101581 -0.12611099

sequential/conv2d_1/Conv2D f4 [16, 3, 3, 32]
00000000: 709e cf3d 2e61 33be de38 fa3d 2b36 0c3c
00000010: 9ccf 03be 5977 113d 1708 a8bd 38f4 b4bd
00000020: 2ea1 343e 29b8 05bd 70b4 093e 9199 b7bc
00000030: 88d2 b2bd c0b8 0ebd 12f8 e73d 29b5 71bd
00000040: 2ab8 bbbc 3d23 933d 3d1f 02bd 5043 203d
00000050: 1a4a 04bb 1d7a 863d 857e 033e 04d7 c33c
00000060: 9feb 05bd 78be 6a3d 7997 b4bd 2959 89bd
00000070: 01f2 533b 72f2 4f3d 6c2f 1abd d9a4 9f3d
00000080: 127c 03bc fd1f 9bbd 7b2d d03c dda5 b0bb
00000090: 3c1c 5c3d 20bd 93bc 3021 77bd 500d e03d
000000a0: 72a3 433e 6767 7dbd 4bf2 3fbd b2c1 b1bd
000000b0: 4c71 893d 32e5 823d 155f 903c 02c8 e1bb
000000c0: 231b 98bd 4e5e cabd 6004 323d 0d7f 1b3d
000000d0: c9f7 2f3c 8089 963d 0625 953c 2aac 62bb
000000e0: 8c14 3abc fdd8 78bd 5d09 d83d 147e 203d
000000f0: 9372 f93d fb25 72bd c3c7 c93d 4320 ed3d
00000100: 71f2 7b3d c8a5 ddbc 3dbd a83d b666 0a3e
00000110: 6d1b 2abd ff77 4c3d b8ff f23c 6b49 ee3c
00000120: bad2 f93d 4ec1 893d b970 ae3d d121 92bd
00000130: 58ec 4c3d 47b1 adbd b3e2 6d3d 6db2 c73d
00000140: 46df 67bd 937f cebc 7fd2 df3c 64f0 87bd
00000150: 1827 923d 794d 043e 1ebb 053d 8567 51bd
00000160: ea0e 753c 235b 8c3d b512 93bd c79d 8b3d
00000170: 3c30 293e 66a4 5dbc e916 0f3e 520c 033e
00000180: e568 0fbd 7392 bf3c 0027 13bd 3174 faba
00000190: f807 9bbd 778c b73d 0c0a 373d 3cd4 14bb
000001a0: 60f2 923d 0b80 74bc adec c5bd 00e0 943d
000001b0: d705 9abd 0604 7ebd ec57 b3bc ef07 c9bc
000001c0: 3337 e03c d3c4 c03c c30d 50bc 5223 cf3d
000001d0: 223d 49bd 5538 51bc 72f4 9a3d 0eb7 993d
000001e0: a434 ca3d 271a babd 2e5d ec3c b5af 81bd
000001f0: a80a c93d 8125 e53d da96 92bd d709 8d3d
00000200: c5c9 58bd 38c9 13be 96a6 123e dfa6 fa3d
00000210: 4031 38bd f603 413e 1342 45bd c115 373d
00000220: 3c8a 613d 30d9 7d3d dd78 743c 1d49 e7bc
00000230: a36a 3dbd a404 e83d e6c4 b5bc 09e3 04bd
00000240: cf69 a4bd 3f11 a8bb a3ed 84bd 8b8e 903c
00000250: 6075 b63d 817a 38bd af53 b1bc 0a0e 45bc
00000260: f3b1 8b3d c4c4 1abd 290f 59bc 4f6c 9a3d
00000270: 28c6 d43d 391e babc d323 d93d bc04 dc3d
00000280: e3d6 b23d 2331 1abe 4da6 ac3d dee9 343d
00000290: aac5 0fbe cd31 7c3d db02 d73c b01f 9fbb
000002a0: f5e1 e93d 5c58 fe3d bc68 b93d 491b 003e
000002b0: e732 ea3d 2ddd 173c 71a1 78bd c5a0 9e3d
000002c0: 8eca dcba f1c2 833d 04e2 f1bd bcd6 433c
000002d0: 2baf b1bd 1703 7ebd d34c 793d 0811 873a
000002e0: 4030 dc3d 9e60 84bd 5992 25bd a4b5 36bd
000002f0: ca9f 5f3d a891 f53d b938 85bd e34d e639
00000300: 7b1d 28bd c9e6 a2bd 618c 3dbd 2ede 283d
00000310: 7b11 703c 6998 573d 9b98 33bd e403 6a3d
00000320: 3d13 5a3e 0722 d0bd 55ac 8f3d c459 ccbd
00000330: 23c1 78bc 239f 9cbd 3121 233b 8bea 813c
00000340: 618f 51bd 7e30 06be 7daa 8bbd 04d4 9ebd
00000350: bd5a b4bd 7bd7 5bbc 8175 7b3d cf5f 8fbb
00000360: 5ab6 a73c ec64 d8bc a1a0 893d 0d51 6b3d
00000370: 1cec c63d 95ad 7e3a 9491 f63d 48ec 33bc
00000380: 9150 7fbd 01d4 10be a357 433d 505b e53d
00000390: a5eb f1bd 0c39 033e 4653 253c 88c2 063d
000003a0: f544 1d3e cc88 b43d f7fc db3c 0574 4fbd
000003b0: 72ec 86bd 1777 c0bc 8a93 8e3c ab32 e63d
000003c0: 980c 10bc 778a 02be 5f99 51bd efcd c93d
000003d0: 3fe8 d3bd adb3 97bd 6d9a 0e3e ffbd 813c
000003e0: cd59 79bd 3ac7 273c 3cb5 e6bd b4e7 63bd
000003f0: 126d ad3c 8aba cb3d 0cf8 f6bb 580a 97bc
0.101376414 -0.1751754 0.12217878 0.0085578365 -0.12872165 0.03551421 -0.08204668 -0.088356435
0.1763961 -0.032646332 0.13447738 -0.022412093 -0.08731562 -0.03484416 0.113266125 -0.05901066
-0.022914965 0.071844555 -0.031768072 0.039126694 -0.002018577 0.0656626 0.12841232 0.023906238
-0.03269541 0.05731055 -0.088179536 -0.06706459 0.003234029 0.050768323 -0.03764288 0.07795114
-0.008025186 -0.07574461 0.025412312 -0.005390866 0.053737864 -0.018034518 -0.060334384 0.10940039
0.19105318 -0.06186619 -0.046861928 -0.086795226 0.06711063 0.06391372 0.017623464 -0.006890298
-0.07427051 -0.098812684 0.043461204 0.037962962 0.010740229 0.07350445 0.01820613 -0.003458748
-0.011357438 -0.06075381 0.10548661 0.039182737 0.121800564 -0.059118252 0.09852555 0.11578419
0.061510507 -0.02705659 0.08239219 0.13515744 -0.04153006 0.049919125 0.029662952 0.029087743
0.12198396 0.06726323 0.08517594 -0.07135356 0.050030082 -0.084810786 0.058077525 0.09750829
-0.056609415 -0.025207317 0.027322052 -0.06637648 0.07136363 0.12920178 0.032649152 -0.051124115
0.014957169 0.068533204 -0.071813025 0.06817203 0.16522306 -0.013527965 0.13973583 0.12797669
-0.035012145 0.023385262 -0.035925865 -0.0019108114 -0.07569879 0.089623384 0.044687316 -0.002270951
0.071751356 -0.014923106 -0.09664283 0.07269287 -0.07520645 -0.062015556 -0.02189251 -0.024539916
0.027370071 0.023531353 -0.012698594 0.10114159 -0.049130566 -0.012769778 0.075661555 0.07505618
0.09873322 -0.090870194 0.028853025 -0.063323416 0.09816486 0.11188794 -0.07157679 0.068866424
-0.052926797 -0.14432228 0.1432136 0.122388594 -0.044968843 0.18849167 -0.048158716 0.04469848
0.05506347 0.061974704 0.014921394 -0.028233105 -0.046244275 0.1132901 -0.022188615 -0.03244308
-0.08027994 -0.005129009 -0.06490638 0.017646095 0.08909106 -0.045038704 -0.021646349 -0.012027273
0.068210505 -0.037785307 -0.013248243 0.075401895 0.10389358 -0.02271949 0.10602536 0.107430905
0.08732393 -0.15057807 0.08430157 0.044168346 -0.14040247 0.06157093 0.026246479 -0.0048560724
0.11420051 0.12419197 0.090531796 0.12510408 0.1143549 0.009269041 -0.060700838 0.07745508
-0.0016845034 0.064336665 -0.11810687 0.011953052 -0.08675989 -0.062014665 0.06086428 0.0010304758
0.107513905 -0.06463741 -0.04042277 -0.04460682 0.054595746 0.11990672 -0.065049596 0.0004392705
-0.04104374 -0.07954175 -0.046276454 0.041227512 0.014652605 0.052635584 -0.043846708 0.057132617
0.21296401 -0.1016274 0.070152916 -0.09978059 -0.015182766 -0.076475404 0.002489161 0.01585891
-0.051162127 -0.13104436 -0.068196274 -0.077552825 -0.088063695 -0.013418074 0.061391357 -0.004375435
0.020472694 -0.02641531 0.06720091 0.057450343 0.09713003 0.0009715197 0.120394856 -0.010981627
-0.062332693 -0.14143373 0.047691 0.11199057 -0.11812524 0.1281473 0.010090655 0.032900363
0.15358336 0.088151544 0.026854021 -0.050647754 -0.06588067 -0.023494286 0.017404336 0.11240133
-0.008792065 -0.12748133 -0.051171657 0.09853732 -0.10347032 -0.07407317 0.13926096 0.015837668
-0.060876656 0.01024037 -0.112650365 -0.05564089 0.021170173 0.09947689 -0.0075368937 -0.01843755

sequential/conv2d_2/Conv2D f4 [8, 3, 3, 16]
00000000: c294 0abe 5ab3 4dbd fe67 da3d fe58 b5bd
00000010: cba0 33bd 98df e33d a110 253e da02 11be
00000020: 2e39 363e d0f8 153e ea0b d9bd e797 ce3d
00000030: 07b4 c83d fa1f b9bd ea59 73bd 4d08 0bbe
00000040: 92ed 9dbd 5b6c 803d 4982 1ebe 2716 c9bd
00000050: 2281 e1bc d79d bbbc d2a5 0ebc d510 b43c
00000060: ed56 d13d 200a 2c3d 6114 82bd 8140 1b3e
00000070: f38e 26be 6a0e 0ebe 4d02 1dbe bbc7 3a3e
00000080: b964 36be 2023 6fbd c94f 19bd 805d 1e3d
00000090: 5614 dfbc 9023 0f3b 4d04 a13d b86f 18be
000000a0: 532a f93d 6f33 01be e0cc 5e3d 2fb5 10be
000000b0: ae8e 163d a5b2 cebd e8ec 873b bc93 3a3e
000000c0: 5e86 e5bd 50e0 0abe 16f2 133d 8642 1cbe
000000d0: 529d d8bc 2bc6 9fbd ba9a 7d3d 4f42 2c3d
000000e0: 9ce7 77bd 2daa 2b3d 95c0 0f3c f835 2f3e
000000f0: f4e7 013d 5069 5ebd 7512 8f3d b165 723d
00000100: a8e0 efbc afc6 0f3e b338 543d a00c bd3d
00000110: 7b4b 9abd d75c d4bb 16e5 963d 7e0c 2bbb
00000120: f6d9 bcbd 32b4 8d3d d53e 07bd 5111 eabd
00000130: a547 43bd b1d6 3b3d 8e51 323d f178 213e
00000140: b716 f4bd 3fdb 2fbe feee 11be e424 b63d
00000150: 4a0b 063e c030 183d 6904 e7bd d275 63bd
00000160: 94f5 acbd bcad f43d 410c 6fbd 5649 a9ba
00000170: 61c5 09bd b51e 99bd 2c97 98bc f044 ad3d
00000180: acaa bfbd 5410 b13c 4d69 263d 7d01 933c
00000190: 1a42 34be aa22 85bd 6c77 debc 8f68 a5bd
000001a0: 1387 303e bd45 093e 2df1 d8bd e0dd bf3a
000001b0: 90f1 3cbe bea8 28be 59ff 53bd cfc8 e0bd
000001c0: dafa 2abe 5594 2ebe b310 dbbd 071a 0a3e
000001d0: 505f 29be 68e2 9bbd 0d7e 23be 6e43 05bd
000001e0: e40b 283e eb27 f23c 1bae 20be f822 22bd
000001f0: ab4f d13d 5cb7 223d ee2e af3d a5e3 07be
00000200: 523c d8bb 4530 36bd 76b9 a6bd cf56 a63d
00000210: c2d2 eb3d 4b10 8d3d b9a4 00be 0d7e aebd
00000220: 3993 8f3d 4952 e73d e249 1a3d c049 3e3e
00000230: a687 6d3d 5961 79bc 440c 123e b708 ecbd
00000240: 2e3f 1c3d 67c0 38bd 766c cf3c 0fa7 2fbd
00000250: 1e65 94bc d158 92bd f4e0 27bd 0985 22bd
00000260: 38a2 af3d 1b56 b13d e267 c43d 6f25 fa3c
00000270: 3129 813c aed7 313d 4a4a 02be d340 903d
00000280: 5991 bdbd 68a3 603e 72c5 4dbd af9f 873c
00000290: d212 de3d 8cc9 75bc 8efa 04be a95d d8bc
000002a0: e0c2 ea3d 2afa 8fbc 0403 08be 6b4d 053b
000002b0: 4477 35bd 133b cc3b ba55 eabd f603 043d
000002c0: 320a 0d3d 2513 373c 138d 2e3c c14f 2a3e
000002d0: 9163 a93d a9ee e4bd ad33 ffbc 6ed7 013d
000002e0: 22ef cb3d 252d 723c 296a e6bd a528 11bc
000002f0: 3fb1 5bbd 3514 f3bd 3af1 b2bd 4dbd 4f3d
00000300: 6143 2d3c 4747 9a3d ca0f 06be cb7c fdbd
00000310: 595a 433e 2b86 1fbd 2eb6 e73d bc97 1b3d
00000320: 9c44 88bd 0dc0 e63d 3cf2 20be b117 a7bd
00000330: bc76 1c3e e1c1 31be 66ae 0cbe e2ff 8dbd
00000340: 8181 81bc cf3c 493e 82db 39bd d075 2c3e
00000350: 1209 68bc 2fbd 693d 5fc0 f1bd dc7b 373e
00000360: 1b62 d6bd ecb8 293e ae32 dabd 8fe7 3c3d
00000370: 5735 9fbd f051 d5ba 96d6 d03d 7212 083e
00000380: 62f0 333e 52d1 2c3e 4416 e3bd c015 b9bd
00000390: 3fea 0c3e 18ef f33d 9174 ddbd 4056 a03d
000003a0: 3027 c0bd d7b0 32bd 05e5 bcbd 0dcd dd3d
000003b0: 58af 5f3e 23a1 013e 2427 a5bd 1e98 d33b
000003c0: b001 f93d 1ba6 023e b2ae 163a f107 adbd
000003d0: 1941 2bbc 4551 003c cce6 a5bb 02d8 a13c
000003e0: f6ac 3f3e 2828 64bd 90b8 dfbd 03b6 ff3d
000003f0: 9f16 c53d e64d 18be 6204 ecbc 95a1 2c3e
-0.13533309 -0.05021987 0.10664366 -0.088548645 -0.043854516 0.111266315 0.16119625 -0.14161244
0.1779525 0.14645696 -0.105979756 0.10087567 0.097999625 -0.09039302 -0.05941192 -0.13577385
-0.077113286 0.06270667 -0.15479387 -0.09818678 -0.027527396 -0.022902412 -0.008706527 0.021980682
0.10221658 0.042001843 -0.06351543 0.15161325 -0.16265468 -0.13872686 -0.15332909 0.18240254
-0.1781186 -0.058383107 -0.037429605 0.038663387 -0.027231377 0.0021841265 0.078621484 -0.14886367
0.12166276 -0.12617277 0.054394603 -0.14131616 0.036757164 -0.100926675 0.0041481145 0.18220419
-0.11207269 -0.13562131 0.036119543 -0.15259752 -0.026442204 -0.078014694 0.061915137 0.042055424
-0.060523614 0.04191034 0.0087739425 0.17110431 0.03171535 -0.054299653 0.06985942 0.05917901
-0.02928193 0.14040636 0.051811885 0.09230924 -0.07533928 -0.006480794 0.073679134 -0.0026099975
-0.0922126 0.06919135 -0.033018906 -0.11429084 -0.047675747 0.045859043 0.043534808 0.15768792
-0.11918395 -0.1717348 -0.14251325 0.08893755 0.13090244 0.037155867 -0.11280138 -0.055532284
-0.08445278 0.119472 -0.058361296 -0.0012915533 -0.0336355 -0.0747656 -0.018626772 0.084604144
-0.09358725 0.021614231 0.040627766 0.017945046 -0.1760334 -0.06500752 -0.027156554 -0.080765836
0.17239027 0.1340551 -0.10592876 0.0014638267 -0.18451524 -0.1647062 -0.05175719 -0.10975801
-0.16697255 -0.17048772 -0.106965445 0.13486491 -0.16540265 -0.07611543 -0.15966053 -0.03253501
0.16410786 0.02956005 -0.15691416 -0.03958413 0.102202736 0.039725646 0.08553873 -0.13270433
-0.0065989876 -0.044479627 -0.081408426 0.08122026 0.11514808 0.06887873 -0.12562837 -0.08520136
0.07010502 0.112949915 0.037668116 0.18582821 0.057990693 -0.015220963 0.14262491 -0.115251
0.03814619 -0.045105364 0.025320273 -0.04288393 -0.018114623 -0.07145847 -0.040986016 -0.039677653
0.08575863 0.086590014 0.095901266 0.030535428 0.015766712 0.04341858 -0.12723652 0.07043614
-0.092562385 0.21937335 -0.050237127 0.016555635 0.108434334 -0.015001666 -0.12986204 -0.026411848
0.11462951 -0.017575342 -0.132824 0.0020340334 -0.044303194 0.006232628 -0.11442132 0.03223034
0.03443355 0.011173998 0.010653752 0.16631986 0.08270944 -0.11178333 -0.03115257 0.03169959
0.0995772 0.014781271 -0.11250717 -0.008859788 -0.053635832 -0.118690886 -0.087374166 0.05071764
0.010575146 0.07533126 -0.1309196 -0.12377318 0.19077434 -0.038946312 0.11314045 0.037986502
-0.06653711 0.112670995 -0.15717405 -0.08158816 0.15279669 -0.17359115 -0.13738403 -0.069335714
-0.015808823 0.19652103 -0.045375355 0.16841817 -0.014162319 0.057065185 -0.1180427 0.17918342
-0.10467931 0.16574448 -0.10654198 0.04611927 -0.07773846 -0.001627503 0.10197179 0.13288286
0.17572168 0.16876724 -0.11088231 -0.090373516 0.13761233 0.11910838 -0.10813249 0.07828951
-0.093824744 -0.04362568 -0.092233695 0.10830126 0.21844232 0.12659125 -0.08064106 0.0064573428
0.12158525 0.12758677 0.00057480775 -0.0844878 -0.010452532 0.007831876 -0.0050629135 0.01975632
0.18718323 -0.05570236 -0.109238744 0.12485888 0.09623455 -0.14873466 -0.028810684 0.16858514
