ml/apple/planticure_model_apple.tflite (tflite, 835828 bytes, 10 tensors)

dense_12/bias f4 [4]
000000 05 b7 ba bc 89 66 e9 3b 86 c8 5c 3b 03 e3 4d 3c
       -0.022792349 0.007122819 0.0033688857 0.012566331

dense_11/bias f4 [128]
000000 38 87 ad bb b7 a1 62 3c 4f e2 b7 bc a5 d1 2d bc
       -0.0052956603 0.013832501 -0.02244678 -0.010609065
000010 3b 23 78 bc 47 80 9d bb f6 50 51 3b f2 a9 66 3c
       -0.015145118 -0.0048065516 0.0031939126 0.014078604
000020 d8 70 6e bc ec ed 43 bc 49 f7 52 bc 65 fa 01 bc
       -0.014553271 -0.01195858 -0.01287634 -0.007933234
000030 c7 0d 6b bb 94 b0 b4 bb ba ec d9 ba 45 76 3b b9
       -0.0035866366 -0.005514214 -0.0016626336 -0.00017877769
000040 aa da 67 3c 3c 37 90 bb 22 c4 be bc c6 9c b5 3a
       0.014151255 -0.0044011157 -0.023286883 0.0013855926
000050 56 00 17 3c 61 26 d7 bb f0 e4 b2 3b e6 9a 14 3c
       0.009216389 -0.0065658544 0.0054594204 0.009070134
000060 65 d0 10 bc 59 9f 98 3c d5 f7 9b bc ee 06 b9 3c
       -0.008838748 0.01863067 -0.019039074 0.022586312
000070 b5 74 81 3c 54 57 06 3b a6 1e 2d 3a 82 55 63 3c
       0.01580272 0.002049883 0.0006603993 0.013875367
000080 65 e7 23 ba 5d 7d 68 bb 85 e9 19 3c e4 9e 88 bc
       -0.0006252437 -0.0035475113 0.009394054 -0.016677327
000090 4b 7e f8 ba 6f 27 13 bc f9 74 8d 3c 63 4f aa 3c
       -0.0018958537 -0.00898157 0.017267691 0.020789808
0000a0 0d 4d 2f b9 2c 19 f2 ba 5b b2 86 3c c3 4b ae bc
       -0.00016718004 -0.0018470637 0.016442468 -0.02127636
0000b0 30 95 ff 3b 34 86 bc 3c 4d d6 86 3c ca bb 69 3c
       0.007799767 0.023013212 0.016459608 0.014265964
0000c0 33 0f 96 bc 35 cc 64 bc c6 4c 89 bb 20 d9 e4 bb
       -0.018317794 -0.013964702 -0.0041900603 -0.006983891
0000d0 15 26 8d 3c 18 87 3a 3c be 7a ec bb a7 1f 89 3c
       0.017230073 0.011384748 -0.0072167804 0.016738726
0000e0 c2 80 27 3a e4 a6 e1 3c d9 c9 b3 ba 07 31 2d 3c
       0.0006389731 0.0275454 -0.0013716772 0.010570771
0000f0 a0 39 08 bc 56 ae 7f 3c 53 26 cd 3a 79 26 d5 3c
       -0.00831452 0.01560553 0.001565168 0.026019322
000100 19 91 3f bc 2f 9f 9b 3b 25 69 57 bb 39 7c a3 3c
       -0.011692309 0.004749201 -0.0032869068 0.019956695
000110 47 57 4a bb 2e de 0c bc 8e 33 fe bb 23 52 a0 bc
       -0.0030874775 -0.008597894 -0.0077576106 -0.019570416
000120 58 ce 0b 3b 4c 96 91 bb e6 fc c6 bb ab 8d 30 3b
       0.0021332707 -0.0044429656 -0.0060726283 0.002693991
000130 2e 80 33 ba bf 0c fa 3b 27 26 c0 bb ec 0b b0 3c
       -0.00068474084 0.007630914 -0.005863923 0.02149006
000140 1b 77 1d bb a8 81 a3 3b 53 ca ac 3c 01 ef 41 bb
       -0.0024027291 0.0049898215 0.02109257 -0.002959192
000150 4a 9f b3 bc d5 27 db 3a a8 93 ba 3c 78 ee 1c bb
       -0.02192654 0.0016720245 0.022775486 -0.002394585
000160 80 1b 74 bc 9a 4f 9c bc eb 59 ec 3c f4 7f a0 ba
       -0.014899135 -0.019080926 0.02885147 -0.0012245164
000170 22 02 ef 3b 31 e0 62 39 5d 31 ba 3c 8c 6b ce 3c
       0.0072939554 0.00021636557 0.022728616 0.025197767
000180 5a 29 76 bc c1 98 97 bc 5c 61 9a 3c 5b 8e 54 3b
       -0.015024507 -0.018505456 0.018845253 0.0032433483
000190 66 1d 26 3a 3f c4 cd bb c2 ae b6 b9 16 2b a5 3c
       0.0006336778 -0.006279498 -0.0003484395 0.020162147
0001a0 c8 a8 c6 3c 0b fc d2 3c e7 ee 3e bb 3d 62 11 bb
       0.024250403 0.02575495 -0.0029134096 -0.0022183799
0001b0 53 24 d1 3c c1 49 c1 bc 3c 19 cf 3c 4b 7d a4 3c
       0.025530016 -0.023594739 0.025280587 0.020079276
0001c0 bd 5f 39 3c 66 34 4f 3c 55 9d 4a bc 67 4e 07 3c
       0.01131433 0.01264677 -0.012366612 0.008258439
0001d0 3f cc c7 3c 17 8a 9d 3c 7b 1e ce 3c 80 78 a2 bc
       0.024389384 0.019230885 0.025161019 -0.01983285
0001e0 15 c2 1c 3c e4 10 32 3c ae 49 bb 3c 09 0f 2c 3a
       0.009567757 0.010868285 0.022862282 0.000656352
0001f0 46 8e 8a 3c 44 1f c3 3c c2 e4 b4 3c 52 4e bf 3a
       0.016913544 0.02381862 0.022081736 0.0014595485

conv2d_20/bias f4 [8]
000000 f5 ed 40 bc f2 da 61 3c 57 be 89 3c 5c 7a 77 bc
       -0.011775483 0.013785111 0.016814394 -0.015104856
000010 e7 9c 79 3c 4d 4a 2e bc 42 70 84 3c 54 72 ec 3c
       0.015235162 -0.010637832 0.01616681 0.02886311

conv2d_19/bias f4 [16]
000000 a9 f1 ba ba 7a 24 fe 3a e8 d2 a6 3c 28 0a 6d bc
       -0.0014262694 0.0019389533 0.02036424 -0.0144677535
000010 b2 7b 6b 3c 93 62 08 3c 3f ba 6f 3c c2 1a d1 3a
       0.014372753 0.008324283 0.014631807 0.0015953409
000020 4b b1 c7 3b e0 98 5a bc 5b 3e fb bb 02 77 37 3c
       0.006094133 -0.013342112 -0.0076673455 0.011197807
000030 36 ba b8 ba 6a 89 04 bc d7 94 85 3c dc a4 be 3c
       -0.0014093581 -0.008089403 0.016306324 0.02327197

conv2d_18/bias f4 [32]
000000 b7 13 bd 3c 8a b7 d1 3c dd 3a ab bb f4 b1 db 3c
       0.02308069 0.025600214 -0.005225523 0.026818253
000010 e1 92 54 3c cb 6e 5e 3c ee a2 a7 3b d5 b3 62 3c
       0.012974472 0.01357622 0.0051158583 0.013836821
000020 20 a2 54 3b 4a 1e b9 3b 98 b8 b0 3c 1f b4 bd ba
       0.0032445267 0.0056493627 0.021572396 -0.0014473236
000030 b8 31 a1 3b 62 50 6f 3c e3 c5 42 bc 0a e3 8b bb
       0.004919257 0.014606567 -0.011888 -0.0042690085
000040 a2 bc 1f 3c c3 fb b6 3b f0 4c 90 bc 95 79 4c bc
       0.009749563 0.0055842116 -0.017614812 -0.012480159
000050 4e fc 5c 3c 57 50 aa 3c 28 b7 3f bb 56 95 a6 bc
       0.0134878885 0.020790262 -0.0029253457 -0.02033488
000060 38 52 92 3b 8a 06 2d 3c cf 07 86 3a f8 91 05 3b
       0.0044653676 0.010560641 0.0010225716 0.0020381194
000070 2b ed 39 bb 92 9d aa 3c 3d d1 cf 3a 64 a7 25 bc
       -0.0028370123 0.020827089 0.0015855205 -0.01011071

sequential_5/dense_11/MatMul f4 [128, 1568]
000000 a7 b6 06 3d 3d 38 1f bd 3e 90 63 bd d1 f5 59 bb
       0.032889035 -0.038871992 -0.055557482 -0.003325809
000010 50 be 38 bc 6b d3 b6 3c 89 b6 06 bd 36 5d 2e 3d
       -0.011275843 0.022317609 -0.032888923 0.04256936
000020 18 e8 c2 bc c3 eb 34 3c fe 35 1a 3b 99 77 0f 3d
       -0.023792312 0.011042538 0.0023530717 0.035026167
000030 e5 ef 13 bb 54 82 4a bc 9a ed 3e bd ca af 85 3c
       -0.0022573408 -0.012360174 -0.046613313 0.016319174
000040 5a c7 3f 3d ec 4a f7 3c b0 a5 e0 3b 21 f3 1c bc
       0.046820976 0.030187093 0.006855689 -0.009579451
000050 21 d2 9a 3b 9b b2 32 bc 75 56 83 3c be 28 84 3c
       0.0047247563 -0.010906841 0.016032437 0.016132709
000060 7a 27 64 3a bc e9 5e bd 64 4e 3b bc 1c af b7 3c
       0.0008703392 -0.054422125 -0.011432264 0.022422366
000070 3b 72 16 3d e3 6b 08 3d 4c 24 61 bd ee 28 29 bd
       0.036730032 0.033306014 -0.054966256 -0.0412988
000080 e8 4c 8b 3d 03 a6 7d bd ec 70 cd 3c f3 e3 0d bd
       0.06801778 -0.0619259 0.02507826 -0.034641217
000090 70 52 34 bd d9 31 a1 3c 2c 34 14 bd c8 4a 5d bc
       -0.04402393 0.01967709 -0.036182567 -0.013506599
0000a0 a3 5f 1b bb ca ab ff 3c 1b f5 51 bd 05 5c 82 3b
       -0.0023708127 0.031209845 -0.05125914 0.0039782547
0000b0 e2 6f 88 bb 13 fe 74 3c 50 90 2e bd bb 57 b3 bb
       -0.004163728 0.014953154 -0.042618096 -0.005473105
0000c0 fc e0 b2 3c 56 48 47 3d a6 10 1c 3d 94 f5 92 bc
       0.021835797 0.04865297 0.038101815 -0.017939366
0000d0 44 20 be 3b 79 19 69 bd b7 f4 5f 3d fb 74 0d bd
       0.005802186 -0.05690906 0.054676738 -0.03453539
0000e0 e6 91 4a bc 90 08 dd 3c 18 3a 50 3d 19 11 8d bb
       -0.012363886 0.026981622 0.050836653 -0.0043050167
0000f0 a2 c2 65 3d d6 20 2c bd d3 d8 e3 3c 1a 3f f2 bc
       0.05609382 -0.042023502 0.02781335 -0.029571105
000100 15 49 5c 3d c0 9c 63 bc 62 b3 50 3d cd 1b c7 bc
       0.053780634 -0.013892353 0.050952323 -0.024305249
000110 ad 11 8f 3c 06 ab ec 3c 5a b3 2b 3d bb 98 b2 3c
       0.017464483 0.028890144 0.04191909 0.021801343
000120 f9 45 87 3d aa 9e 4b bd 75 4b b6 bc d4 5e cd 3c
       0.06605143 -0.04971186 -0.022252778 0.025069632
000130 eb e0 6c bb e8 a7 56 bd d4 b6 56 3d 89 f3 43 3d
       -0.0036144804 -0.05240622 0.052420452 0.047839675
000140 62 45 a3 3d 63 33 b1 bc da a1 cc 3c e5 3e 0a 3d
       0.07972218 -0.021630948 0.02497952 0.033751387
000150 9b 96 46 bd 48 c3 1e 3d 83 80 30 bc a1 fb 6f 3c
       -0.048483472 0.038760453 -0.010772827 0.014647395
000160 7d 15 fd 3c a0 6b d2 3c df 0e cb bc ee c3 83 3c
       0.030894035 0.025686085 -0.024787365 0.016084637
000170 08 39 45 3d b1 32 38 3c 51 86 68 bd e7 e2 3d bd
       0.048150092 0.0112425545 -0.05676872 -0.04635897
000180 06 60 33 3d ba 6e 1b bd d9 cf bd 3c d2 d8 1f bd
       0.043792747 -0.037947394 0.023170399 -0.039025135
000190 93 86 e6 bc 16 41 b3 3c e1 01 00 3d b6 fa 4a bd
       -0.028140342 0.021881621 0.031251792 -0.049555503
0001a0 63 5e 1c 3d 74 9c 18 bd d1 5a 59 bc 13 aa 33 3d
       0.03817595 -0.03725858 -0.013266281 0.043863367
0001b0 e3 61 e4 3c a4 6d 0d bd f2 6b bd bb a4 06 10 3d
       0.027878707 -0.03452839 -0.0057806903 0.035162583
0001c0 99 47 a4 bb 31 9d 88 bd 1d 55 53 bc 9a fc 27 bd
       -0.005013418 -0.06670607 -0.012898711 -0.041012384
0001d0 f8 10 cb 3c f5 a0 36 3c 43 ac 61 3c 88 0f 9f 3b
       0.024788365 0.011146774 0.013773981 0.0048541464
0001e0 6f 41 70 3d 46 09 48 3d 6d f5 e4 39 49 be 8b bb
       0.058656152 0.04883697 0.00043670405 -0.004264627
0001f0 ee 3d 31 bd 1e 09 72 3c bb 15 a4 bd a6 8c 11 bd
       -0.04327195 0.0147726815 -0.08011957 -0.035534523
000200 b1 7a 3a 3d 0b 3a 16 bd 5d 17 37 bd 8b 77 08 bd
       0.045527164 -0.036676448 -0.044700015 -0.03331713
000210 54 f7 7e 3c 16 4e 1a bd c7 58 e4 3c 49 1c ff ba
       0.015561897 -0.037672125 0.027874364 -0.0019463386
000220 1b 96 90 3c 71 19 05 3d c5 d1 75 bd 41 f5 eb 3c
       0.0176497 0.032494966 -0.060014505 0.02880347
000230 d4 1a 2e bc dc 7a 51 bb 62 61 f2 3c 20 f7 61 bc
       -0.0106265135 -0.00319641 0.029587451 -0.013791829
000240 36 5a 9d 3d 1c 58 1b 3d 7f 4b 1d bd be 7a 33 bd
       0.07683222 0.037925825 -0.038402077 -0.043818228
000250 2b 11 91 3b aa e4 59 3c c1 9c b9 bc 03 27 2a 3c
       0.0044270954 0.013299147 -0.022657754 0.010385278
000260 be fb 6a 3d 2c 0b 9d bc db 5b 0a 3b 9f 07 a1 bc
       0.057368986 -0.019170366 0.002111188 -0.019656954
000270 cf 17 a7 3c f1 e7 b0 bc 5b 0d 1f 3d cd c0 e4 39
       0.020397095 -0.021594973 0.038831096 0.00043631197
000280 a9 86 15 bc 2c d0 82 bd c8 6f 5d bd fc 8a 87 3c
       -0.009126344 -0.06387362 -0.05406168 0.016545765
000290 cd 88 65 3d ca 04 b9 3c 02 3f 87 3d 5e 26 12 bc
       0.056038667 0.022585291 0.06603815 -0.00892028
0002a0 3c aa 68 3d c2 50 48 bd da 4e dd 3c 10 d4 2c bd
       0.056802973 -0.04890514 0.027015138 -0.042194426
0002b0 f9 e4 84 39 02 5d f6 bb 60 af f9 bb b6 66 24 3c
       0.000253476 -0.0075184116 -0.0076197833 0.010034254
0002c0 87 03 90 bc b9 4d f8 bc dd c6 0f bd 8e fc 51 3d
       -0.017579807 -0.030310499 -0.03510176 0.051266246
0002d0 ed c7 2a 3d 33 8d 0a 3d 6f d9 d9 3c f2 8d 7a 3c
       0.04169457 0.033826064 0.026592938 0.015292631
0002e0 e9 80 ba b8 68 4e ea bc 76 96 d8 bb 2c 97 75 ba
       -8.8931825e-05 -0.02860184 -0.006609733 -0.00093685347
0002f0 3b f7 38 3a 11 0a 10 bd 78 7f 15 3b ca 80 20 3d
       0.0007055883 -0.03516585 0.0022811573 0.039185323
000300 9e 81 b9 3d 51 02 4a bd ff 1b 04 bb e0 46 be 3b
       0.09057926 -0.049318615 -0.0020158289 0.005806789
000310 f7 46 91 3c 77 33 77 bd 20 fa cf bc 35 3c 96 3c
       0.017734034 -0.060351815 -0.025387824 0.018339256
000320 83 81 6a 3d 00 4c cb 3b e7 c5 21 bd 0e e1 51 bd
       0.05725242 0.0062041283 -0.039495375 -0.05124002
000330 28 26 e1 bb 68 44 41 bd 4b 89 6f 3c d8 ba ba 3c
       -0.0068710037 -0.047184378 0.014620136 0.022794172
000340 b1 c5 83 bc a5 98 04 3d 3c 39 16 bd 56 57 af ba
       -0.016085478 0.032372136 -0.036675677 -0.0013377469
000350 9b 0c 3c bb 2a 5d 49 3c 1b bf c4 3c f2 7c 21 3c
       -0.0028694037 0.012290278 0.024016907 0.009856449
000360 59 4f 8f 3d 80 bd c7 3c 97 3d 19 bd dc 57 20 3d
       0.06997556 0.024382353 -0.037412252 0.03914629
000370 94 14 f8 3c e0 0b e7 bc cd c9 20 bd d3 7b 27 bd
       0.03028325 -0.028203905 -0.039254952 -0.040889572
000380 0b a7 02 3d 2e 3c 51 bc b7 ce 82 bd 38 ba 41 3d
       0.031897586 -0.012770696 -0.06387084 0.047296733
000390 0d cf 6b bc 8d 1d 3b bd 52 82 de b9 91 6e 49 bd
       -0.0143926265 -0.04568248 -0.00042440236 -0.04917771
0003a0 50 4b a6 3d 90 c8 e3 3c ca 5f dd 3c 54 bf 11 3d
       0.081198335 0.027805597 0.027023215 0.035582855
0003b0 3d 76 f0 bc 8d 89 68 bd 38 dd fb 3c 6b 00 bd bc
       -0.029353255 -0.056771804 0.030745134 -0.023071488
0003c0 b3 38 2a bd aa 51 f1 bc bc 9a 23 3d 0f f0 f2 3c
       -0.04155798 -0.029457886 0.039942488 0.029655484
0003d0 d8 50 1a bc 3b a0 48 3d aa 54 35 3d a1 1f 72 bc
       -0.009418689 0.048980933 0.044270195 -0.014778049
0003e0 b2 46 27 3d 6d 58 12 bc 75 10 04 bd ba a3 48 bd
       0.040838905 -0.008932215 -0.032242257 -0.048984267
0003f0 50 02 a4 3c a1 1a ea 3c d6 bd 5c 3d d3 b0 64 3c
       0.020020634 0.02857715 0.05389198 0.013958174

sequential_5/dense_12/MatMul f4 [4, 128]
000000 61 d6 c4 3d 59 e9 91 bd 77 e5 0e 3e ed 9e 52 3e
       0.09611202 -0.07124586 0.13954721 0.20568438
000010 ac 64 52 3d 31 52 a3 3c de 7b 91 3d 55 cd 36 be
       0.05136554 0.019936653 0.07103704 -0.17851765
000020 24 0e 8b 3d 40 c7 22 3e 76 06 29 3e 21 62 09 3e
       0.067898065 0.1589632 0.16506371 0.1341634
000030 be 57 de 3d 55 a3 d4 3d f7 8c cd bc db d1 a9 bc
       0.10856579 0.103827156 -0.025091631 -0.02072995
000040 cd 68 4b be 9c bd de bc c6 f9 1b 3e 3f bb 2f bc
       -0.19864197 -0.027190022 0.15232 -0.010725795
000050 97 1f 59 be 86 db 24 3e cb 63 02 be 98 ef df bc
       -0.21203457 0.16099367 -0.1273338 -0.027335927
000060 47 d6 ff 3d ac a4 ce bd 02 26 58 3e 57 5a cb bd
       0.12492042 -0.100900024 0.21108249 -0.0992934
000070 84 dc 9c bd 6e 7b 45 bd 87 76 8d bb c3 f2 b2 bd
       -0.076592475 -0.048213415 -0.004317108 -0.087377094
000080 07 89 a3 3c 75 b4 85 3d dd 0e a3 bc e7 3d 0f bd
       0.0199628 0.0652856 -0.019904548 -0.034971144
000090 48 e7 30 be b1 cc 56 3e 78 06 2a be bf 93 16 bd
       -0.17275727 0.20976521 -0.1660403 -0.036761995
0000a0 10 af 1b bd 3e 25 ed bc d9 e9 9b bc 05 92 98 3d
       -0.03800875 -0.028948423 -0.019032406 0.07449726
0000b0 23 c7 9e 3d e3 05 4f be dc 90 9d bd 0b 39 39 be
       0.07752826 -0.2021709 -0.07693645 -0.18088166
0000c0 7f 16 3c 3e 8a 8d 0d 3e 87 54 58 bd c1 9d 1c 3d
       0.18367957 0.13823524 -0.052814987 0.038236383
0000d0 a8 65 8d bd ec d3 8d bd 97 95 db 3d 97 ec 60 be
       -0.06904155 -0.069251865 0.107218914 -0.21965252
0000e0 46 6b 1f 3e 6f aa 71 be c1 3a a8 3c 49 f3 43 bc
       0.15568265 -0.23600172 0.020535829 -0.011959859
0000f0 cf f0 ef 3d 51 8b 28 be 76 5e 04 be e8 c0 5a be
       0.117158525 -0.16459395 -0.12926659 -0.2136265
000100 fd 9f 83 bd ba f8 e1 bc 2b ca 97 3a df ec ce bd
       -0.06427 -0.027584422 0.0011580636 -0.10103773
000110 2c d5 e6 bd 65 26 2b bb fa f1 21 3d 3b 4e 63 3e
       -0.11271128 -0.0026115414 0.039537407 0.22197811
000120 7a ab 27 bd 91 64 c5 bd 9a f2 03 3d 7a ed a5 3d
       -0.040935017 -0.09638322 0.032213785 0.08101936
000130 a1 5a 25 be ca 38 9b bd 84 00 41 3e 72 8e 13 be
       -0.16147853 -0.07579191 0.18847853 -0.14409807
000140 be 47 eb bd d5 52 7f bc e3 89 5b be fa 47 66 3c
       -0.11488293 -0.015583714 -0.21439318 0.0140552465
000150 9b 6a 06 3e 28 e3 7a bd ef 1d 2d bd ed aa e1 bd
       0.13126604 -0.06125179 -0.042264875 -0.1101893
000160 5f c2 26 3e 34 66 29 3e 0d 0c 6b be f6 40 68 bd
       0.16285084 0.16542894 -0.22953816 -0.056702577
000170 88 78 80 bd dc 62 cf 3d eb 3f 5d be 18 bd 3f be
       -0.062729895 0.10126278 -0.21606414 -0.18724477
000180 5a be 1a 3e e1 20 c5 3d cd dd 6f be bc 77 db bb
       0.15111676 0.09625412 -0.23424454 -0.006697623
000190 a9 77 c1 3d b2 76 1a 3d 3b 91 a9 3c 3d f3 0b be
       0.094466515 0.037710853 0.020699134 -0.13667007
0001a0 66 5b 69 be 32 16 26 be af 7e c4 bd e4 b4 25 3e
       -0.22788772 -0.16219404 -0.095944755 0.16182286
0001b0 41 ff 34 be dc ef ec bc 41 f3 33 be f2 a2 a2 bb
       -0.17675497 -0.028922968 -0.17573263 -0.0049632723
0001c0 a9 05 b1 bd a2 97 76 bd 34 75 e1 3d 08 4d 5f be
       -0.08643658 -0.060203202 0.11008683 -0.21806729
0001d0 b5 87 75 bd 0d 37 60 be e5 43 45 be 3d ee 32 3e
       -0.059943873 -0.21896 -0.19264181 0.17473693
0001e0 ae 82 95 bd a0 77 17 bd 28 76 6b be ce 05 fc 3d
       -0.07300316 -0.036979318 -0.22994292 0.12305795
0001f0 43 5e 60 be 67 7c d6 bd a2 d0 b0 bd 16 39 1a be
       -0.21910958 -0.104729466 -0.086335436 -0.15060839
000200 a6 5a 5c 3e a4 82 2a be 00 96 c7 bd 5c d7 67 3e
       0.21518955 -0.16651398 -0.09745407 0.22640747
000210 51 0a 8d 3c 0a e4 74 3c af b0 6c 3e 95 df 0f 3e
       0.017216833 0.014946947 0.23114274 0.14050134
000220 6e dd 20 3c d6 d0 32 3e 33 7e 1a 3e 3b d9 20 3e
       0.009818418 0.17462477 0.15087204 0.15707867
000230 d6 c4 41 be 57 c4 82 be 44 e4 6a 3d 49 af 87 bd
       -0.18922743 -0.2554042 0.057346597 -0.0662523
000240 29 31 b0 bd e6 00 45 3d bf 0f a9 bd d3 a3 07 3d
       -0.086031266 0.04809656 -0.082549565 0.03311522
000250 c2 1d c2 bc 2c 06 35 be 23 14 88 bc 0f 13 5a be
       -0.02369583 -0.17678136 -0.016611164 -0.21296333
000260 de 09 81 be 4b 5f b9 bd 59 ca 5a be d2 e3 b1 3d
       -0.2520284 -0.09051379 -0.21366252 0.086860314
000270 1c ac a7 bd 4b 9a 02 be 5d db 3f 3e fd e4 41 3e
       -0.08187124 -0.1275417 0.18736024 0.18935008
000280 71 af 23 3e 29 fa 60 be d7 95 1e bd f1 d1 09 be
       0.15984894 -0.21970429 -0.038717117 -0.13458993
000290 54 1a 61 3d 9a cd 55 3e 74 cc 16 be 84 43 45 3e
       0.05495675 0.20879212 -0.1472643 0.19264036
0002a0 12 4b 48 3d 7c 40 2b 3e 8f 7d ed bd b6 b0 14 be
       0.048899718 0.16723818 -0.11596214 -0.14520535
0002b0 73 74 1d 3e c0 2a 02 be f7 55 5f 3e 19 23 c5 3d
       0.15376453 -0.1271162 0.21810137 0.09625835
0002c0 62 c3 12 be 48 92 ad 3d 3e 14 ab 3c 82 2e 9b 3d
       -0.14332345 0.084751666 0.020883676 0.0757723
0002d0 84 7d 0f 3e a5 04 2b 3e c9 ed 57 3e e2 a7 28 be
       0.14012724 0.1670099 0.21086802 -0.16470292
0002e0 5f e1 33 3e 76 84 7e 3d 39 da c3 3d 89 a8 63 3d
       0.17566441 0.062138043 0.09563107 0.05558065
0002f0 8f a0 8d 3d 5b cc 1d 3e d7 e9 4a bc 63 5a 23 bd
       0.0691539 0.15409987 -0.012384853 -0.03988112
000300 f2 7e 60 be 02 e5 33 be ff 2e 75 be 2d 63 68 3e
       -0.21923426 -0.17567828 -0.23943709 0.22694083
000310 a0 d7 bf bd 14 ce fd bd cc ac 24 3d 96 45 90 bd
       -0.09367299 -0.12392822 0.040203854 -0.070445225
000320 7b c0 26 be 02 bd 1e be 40 59 c9 3d 4f fd 34 3d
       -0.16284363 -0.15501788 0.09831476 0.044186886
000330 b5 22 e6 bd a1 71 63 be 31 84 67 be 75 87 05 3d
       -0.112370886 -0.22211315 -0.22609021 0.032599885
000340 1e 95 68 bb 38 64 64 bd 3c 0b 25 bd b4 9a ac bd
       -0.0035489271 -0.05575964 -0.040293917 -0.08427945
000350 56 6f ed bd 69 0d 29 bd e6 c6 45 3e 9e da e9 3d
       -0.11593501 -0.041272555 0.19314155 0.11418651
000360 5b d0 62 be 10 96 82 3c 73 1f aa 3c dc 57 1d bd
       -0.22149794 0.015940696 0.02076695 -0.038413867
000370 7e 62 f0 bc 87 10 4b 3e 85 8e 14 3e 55 fc a0 3d
       -0.02934384 0.19830523 0.14507492 0.078606285
000380 c7 1f 7c be 95 98 0c be e8 fa 46 3e f3 1b 60 3e
       -0.24621497 -0.1373008 0.1943165 0.21885662
000390 7a 5c 8a 3d 9c 19 9a bd fb 81 18 3e 36 da ed bc
       0.0675592 -0.07524416 0.14893334 -0.029034715
0003a0 ee e2 73 bd c2 e1 0e 3d 53 43 d7 3d a2 f3 76 be
       -0.05954259 0.03488327 0.10510888 -0.24116376
0003b0 13 26 25 3d 81 f7 78 be 1a 11 5c bb c3 d5 19 3e
       0.040319514 -0.24313165 -0.003357953 0.1502295
0003c0 09 9e 5f be 1e 4c da bd 6e 5c 61 3c 33 a4 87 bd
       -0.2183763 -0.106590495 0.013754947 -0.066231154
0003d0 dc 98 22 3e 67 8e 24 3e 39 fc e8 bb 18 68 6a be
       0.15878624 0.16069947 -0.0071101454 -0.22891271
0003e0 1e 10 2b be bd f0 46 3e 43 f1 da bd 74 68 a9 bd
       -0.16705367 0.19427772 -0.10690548 -0.08271876
0003f0 f2 e7 44 3e a4 52 c1 3c 4b d5 82 3d 1e fb 33 be
       0.19229105 0.023598976 0.06388339 -0.17576262

sequential_5/conv2d_18/Conv2D f4 [32, 3, 3, 3]
000000 10 bf e4 bd 5c 7f 96 3d 7b 04 9b bd b1 2f 96 bd
       -0.11169255 0.073485106 -0.07569214 -0.07333315
000010 fb bf 89 bd ac bd 3e 3c 10 37 09 bd fe 3d fe 3d
       -0.067260705 0.011641901 -0.033499777 0.12414168
000020 9b 99 b2 bd b4 ed 6a bd e1 e9 85 bd c8 9a df bc
       -0.08720704 -0.057355598 -0.065387495 -0.027295485
000030 c6 e8 f3 3d d3 25 f0 3d 93 47 c4 3d 28 2f 87 bd
       0.119096324 0.117259644 0.09583964 -0.06600791
000040 87 9e 1b bd 27 64 a2 3d 6f 51 53 bd 06 53 f9 3d
       -0.03799298 0.07929259 -0.051591333 0.121740386
000050 db 94 47 bd 40 c9 5e bd 51 20 a2 bd 34 85 5f bc
       -0.048725944 -0.054391146 -0.0791632 -0.013642598
000060 53 8e 40 bc 59 1b b3 3d b7 89 50 3d ab 47 60 bd
       -0.011752683 0.087454505 0.050912585 -0.054755848
000070 e7 ff 4f bd aa 6d a0 3d 6d 81 80 bd 3e e1 9f bb
       -0.050781157 0.07833417 -0.06274686 -0.004879146
000080 6d 9f 95 3d 5a 10 d4 3d 89 3a 11 3c 38 43 dd bd
       0.07305799 0.10354681 0.0088640535 -0.108038366
000090 2d fb 9c bd 42 a6 2d bd da 12 b5 bb e7 10 10 3e
       -0.076650955 -0.042394884 -0.005525929 0.14068948
0000a0 4b 83 4d bd a6 0e fb 3c 97 a1 93 bc 47 be da 3d
       -0.05017404 0.030646633 -0.018021388 0.10680824
0000b0 dc d7 0d bd 44 79 b7 bd 3c 89 30 3d d2 88 3b 3d
       -0.034629688 -0.089586765 0.043099627 0.04578478
0000c0 d1 0c c3 bd b8 11 1c 3e 8f 74 d9 bd a1 b5 80 bd
       -0.09523929 0.15241134 -0.10617935 -0.06284643
0000d0 14 6c da 3d 91 01 b1 bd 98 3a fc 3d a3 2b 0d bd
       0.106651455 -0.08642877 0.12315863 -0.034465443
0000e0 30 e7 2a bb 15 3a 50 3d f5 98 ad bd f5 1a 9d bd
       -0.002607774 0.05083664 -0.0847644 -0.07671157
0000f0 93 82 db 3d 43 ec e3 bd 30 cf 78 bd fe 58 af 3d
       0.107182644 -0.11129048 -0.060744464 0.08561896
000100 1d 32 e9 bd 98 ea c2 3d 5b 81 a3 3d 1d 28 88 3d
       -0.113865115 0.095174015 0.07983657 0.06648276
000110 4a b9 8a bd 50 fe 1a 3d 8d 98 7c 3d 55 85 18 3d
       -0.06773622 0.037840188 0.06166892 0.03723653
000120 de d0 ad bd 5f e4 d7 bd 66 62 85 bd d0 f2 08 3e
       -0.08487104 -0.10541605 -0.06512909 0.13373876
000130 41 94 a7 bd c9 e3 c4 3d 2a 0c be 3c 5b 70 40 bd
       -0.08182574 0.09613759 0.02319916 -0.04698215
000140 3e 26 e8 3d f5 d1 32 bd b0 09 0f 3d 6b 4c d7 3d
       0.11335419 -0.043657262 0.034921348 0.105126224
000150 59 31 a5 bd 4b cd 89 bc 77 07 ac bb 11 cd b4 bd
       -0.08066053 -0.016821524 -0.0052499133 -0.08828176
000160 fb 82 e9 bd 12 13 a6 bd cf b5 74 bd 3f bd 97 bd
       -0.11401936 -0.08109106 -0.0597437 -0.07409143
000170 4e f6 9c 3d 04 91 de 3d 4d 8e 84 bc b3 2c b7 3c
       0.076641664 0.10867503 -0.016181136 0.022360181
000180 0d 87 95 bd ee 8f b6 3d 15 97 f4 3c 86 3b 80 3d
       -0.073011495 0.08914171 0.029857198 0.06261353
000190 b1 44 7e bc 79 27 54 bd 49 ce 8f bd f0 9b 5e 3d
       -0.015519307 -0.051795457 -0.07021768 0.054347932
0001a0 7b ae bc 3d e6 11 e3 bd 03 4d 09 3e 4a c5 c3 bd
       0.09212967 -0.11087398 0.13408284 -0.09559114
0001b0 39 f0 0c 3b 86 e5 e0 bd 05 6f a9 bd 81 5f fd bc
       0.0021505489 -0.10981278 -0.082731284 -0.030929329
0001c0 10 9b 0e 3e c0 9a a3 bd 58 64 66 bc df e8 f3 bd
       0.13926339 -0.079885006 -0.01406201 -0.11909651
0001d0 44 f9 6f 3d 1e 37 b1 3d 58 f2 94 bc 02 37 b3 bb
       0.058587328 0.08653091 -0.018181965 -0.005469204
0001e0 ef 96 0d 3d ca a8 78 3c 8d 88 d3 3d 17 8f 91 bd
       0.03456777 0.015176961 0.10328779 -0.0710737
0001f0 9c 36 e3 3d 38 3b e3 3c 1c 5c 87 bd 93 b6 86 3d
       0.110944 0.027738199 -0.06609365 0.06577792
000200 15 e4 ae bd e2 38 44 bc e1 71 bb bd 93 55 1f 3d
       -0.08539597 -0.011976453 -0.0915258 0.03889997
000210 ba f8 8b 3c 35 e3 0d 3e b6 58 d7 bd a9 78 a1 bd
       0.017086376 0.13856204 -0.10514967 -0.07884342
000220 86 a4 7c bb a9 e1 eb 3d 5c f7 11 3c 56 5c 06 3e
       -0.0038550212 0.11517651 0.008909073 0.13121161
000230 e4 05 82 3d 4b d2 df 3d 85 00 b7 3d 78 23 14 3c
       0.0634878 0.10928782 0.08935646 0.0090416595
000240 8f b1 d6 ba 1c d5 e5 bd 0d 69 91 3d 37 1e 4d bd
       -0.0016379821 -0.11222288 0.07100115 -0.050077643
000250 62 04 08 3e 8c b4 28 bc 0d 03 8e bd ef 55 c9 3d
       0.13282922 -0.010296952 -0.06934176 0.09830844
000260 fa 41 18 3e 56 70 07 be 12 2e bd 3b 91 f6 04 be
       0.14868918 -0.13226447 0.0057733143 -0.12984683
000270 3a c7 0c be 34 b9 06 3d 28 10 e1 bd 15 b6 8b bd
       -0.13747874 0.032891467 -0.1098941 -0.06821839
000280 d9 75 d4 bd 01 3a cb bd c6 e3 f4 bd a0 81 b3 3d
       -0.1037404 -0.09923173 -0.11957507 0.087649584
000290 d1 e5 c1 bd 34 68 06 3e 76 e4 0b 3e c4 30 0a bd
       -0.09467662 0.13125688 0.1366137 -0.033737913
0002a0 30 25 ef bc 0e 63 b4 bd d5 d9 d7 bd ff d5 a0 bd
       -0.029192537 -0.08807956 -0.10539595 -0.078533165
0002b0 06 21 ea ba 51 44 a3 3d 87 13 86 bd bc 98 e3 bc
       -0.0017862625 0.07972015 -0.06546693 -0.02778279
0002c0 f7 9b 16 3e 93 37 80 3d d0 91 5b bc 1e 40 a6 3c
       0.14707933 0.062606 -0.013401464 0.020294245
0002d0 7b 60 3f bd 41 2c ea 3c 34 0e 0d 3e 8d 44 a2 bd
       -0.04672287 0.028585555 0.1377495 -0.07923231
0002e0 a2 69 d8 3d 12 f4 4e bd 52 10 90 3d 94 94 fa bd
       0.10567023 -0.050525732 0.07034363 -0.1223537
0002f0 cb a6 de bd 11 53 a5 3d c0 a5 08 3e 04 b8 bb 3d
       -0.10871657 0.08072484 0.13344479 0.091659576
000300 a4 72 b7 bc 1a af 14 3e 80 3f 73 bc 50 db a2 bd
       -0.022393532 0.14519921 -0.014846683 -0.07951987
000310 4e 19 f6 3d 94 1a 83 3c de e6 c3 3c 32 2b 13 bd
       0.12016545 0.016003884 0.023913797 -0.035929866
000320 bb 51 32 bd ef 82 01 3d 4b a6 98 3a ff e3 70 3d
       -0.043534975 0.03161901 0.0011646239 0.058811184
000330 dc ef e3 bd eb 0c 5c 3d 19 db 12 3e 8a cc ea 3d
       -0.11129734 0.053723257 0.14341392 0.11464794
000340 32 7c c7 3d 1f 14 49 bd 93 0c 7e bc 2a 69 2c bc
       0.09740485 -0.049091455 -0.015505928 -0.01052312
000350 90 fc ad 3d ca 28 a2 bd ae ad 3f 3d c0 26 4d bd
       0.08495438 -0.07917936 0.046796493 -0.050085783
000360 b5 f7 e4 bc 62 e6 c8 3d 5b e6 c0 3d 15 a5 ee 3d
       -0.027950147 0.09809567 0.09418937 0.11652581
000370 08 61 0b 3e 7e 87 34 bd 6a 51 ec bd 61 b8 dd 3d
       0.13611233 -0.044074528 -0.11538966 0.10826183
000380 c6 fc 63 bd 66 8a d4 3d 5d 15 8b bd a3 1d bc 3b
       -0.055660985 0.1037796 -0.06791184 0.0057408377
000390 7c 59 c8 3d 2c 5b 01 bc a0 1d 8c 3d 35 3c c6 bd
       0.09782693 -0.007895272 0.06841588 -0.09679452
0003a0 92 eb c6 bd 1e 49 5b 3b be 97 d4 3d 10 e5 9f bd
       -0.097129 0.003346033 0.10380505 -0.07807362
0003b0 8a 44 16 3e 82 de 0a 3d 31 4c 0a be 40 76 09 bd
       0.14674583 0.033903606 -0.13505627 -0.033560038
0003c0 fc 09 e5 3d 77 e0 5e bd 54 ae ca bc a0 11 56 3d
       0.11183545 -0.054413285 -0.02474133 0.052262902
0003d0 17 bd 31 bd 13 7b 07 be 57 91 b5 3d 86 f5 6a 3d
       -0.04339322 -0.13230543 0.08865612 0.057363056
0003e0 7b e6 50 bc 09 22 a6 bd 28 63 f1 3d 76 61 eb bd
       -0.012750263 -0.081119604 0.11786491 -0.114931986
0003f0 18 ec c0 3d 9d 02 03 3e 07 97 f9 3d c7 1a e5 3d
       0.09420031 0.12793966 0.12187009 0.11186748

sequential_5/conv2d_19/Conv2D f4 [16, 3, 3, 32]
000000 aa 25 13 3c 8b d9 ff 3d 93 b4 f9 bd 6e 8c 63 bc
       0.008981148 0.12492665 -0.12192645 -0.0138884615
000010 46 48 f9 3d 6f 13 8e bc 94 6c cd bc df 1d 65 3d
       0.12171988 -0.017343251 -0.025076188 0.05593669
000020 53 15 11 3c 5f 3b 66 bc 09 e8 0c be ed cb 5b bd
       0.008855182 -0.014052241 -0.1376039 -0.053661276
000030 6a 48 d5 3d 9f 73 e9 3d 47 f5 af bc ba 16 21 3d
       0.104142025 0.11399006 -0.021479262 0.039328314
000040 14 97 a2 3d d8 44 d6 bd 64 34 9f 3c 06 1f 8c 3c
       0.07938972 -0.1046235 0.019434161 0.017104637
000050 df 25 98 bd 4e 3e e1 bc 6e b6 49 3d 7c 57 a2 bd
       -0.07429098 -0.02749553 0.049246244 -0.079268426
000060 8b 50 ac 3d 57 fc fe bc d3 5f 39 3d 92 f2 1f 3c
       0.084138 -0.031126184 0.0452574 0.009762423
000070 d5 3b a2 bc 12 7c e2 3d 6d 54 c9 bd 72 5e 3a 3d
       -0.01980392 0.11058821 -0.09830556 0.045500226
000080 8a 19 cc 3d 14 55 b3 bc 86 7d 4e 3c 39 6e 20 bd
       0.09965809 -0.021891154 0.012603169 -0.039167617
000090 13 da ac 3c 5f ea 1f bd f8 b0 f3 3d 93 52 50 3c
       0.02110008 -0.039041873 0.118989885 0.012715
0000a0 f7 9a b0 3d da 46 0c 3e 44 74 57 3d d3 3d 32 3d
       0.08623307 0.13698903 0.052601114 0.04351599
0000b0 1c 02 8b 3d f9 ee de 3d aa 36 87 3d fd d9 f4 3c
       0.06787512 0.10885424 0.06602223 0.029889101
0000c0 bb 89 11 bd 25 34 6c bc 25 06 80 bc 0b 66 b2 bc
       -0.03553174 -0.014416729 -0.01562793 -0.021777174
0000d0 00 35 6a 3c 87 6a 5e bd 90 6f ad 3d 73 18 00 3d
       0.014294863 -0.05430081 0.084685445 0.031273317
0000e0 34 8f 0e 3c f9 1d d6 bd c4 31 7a 3c f2 06 d2 bb
       0.0087011345 -0.104549356 0.015270654 -0.0064095194
0000f0 1f af 84 3c 04 6b 86 3d de 2a fc bd 06 8b b9 bd
       0.016196785 0.0656338 -0.12312864 -0.0905972
000100 f3 c0 49 bc 3c 3c cd bc 44 4f ca 3d 18 e3 9e bd
       -0.012314069 -0.025053136 0.098784 -0.077581584
000110 fc 54 e6 3d b0 59 c8 bd 6f f8 7c bd ae 8d c7 3d
       0.11246678 -0.097827315 -0.061760362 0.0974382
000120 b9 a5 ac bd 51 9b b4 bc 63 94 7e bd a4 bc 78 3d
       -0.084300466 -0.022046717 -0.06215323 0.060726777
000130 e1 80 d9 3d 11 e8 48 bd 2a 2f bf bd 0d 1c bb 3b
       0.10620285 -0.04904944 -0.09335168 0.005710131
000140 57 5e 37 3d 0e 31 6d 3d 5f 34 f9 bd 4a 9b 87 3d
       0.044767704 0.05790811 -0.12168192 0.06621416
000150 cb c2 56 bd 1e 85 a4 bd 23 1d 8a bd 60 ce 8e 3d
       -0.052431863 -0.080332026 -0.06743839 0.06972957
000160 24 74 a5 bd 6d 82 8c 3d f8 ba 29 3d 2b 36 a2 3d
       -0.08078793 0.06860814 0.041438073 0.07920488
000170 0a 14 65 bc 82 b2 1b 3d 53 2f e9 bd e2 e4 92 3b
       -0.0139818285 0.038012035 -0.113859795 0.0044828514
000180 fb 9e 98 3c 06 53 a0 bd 15 b8 db bc 80 90 7a bd
       0.018630495 -0.078283355 -0.026821176 -0.061172962
000190 eb 53 ad 3d 9d a0 df 3d 66 10 86 bc 61 fb 00 3e
       0.08463272 0.109193064 -0.016365241 0.12595893
0001a0 99 5e d3 bd 06 66 87 3c ad 86 06 be e0 59 b5 bd
       -0.103207774 0.01652814 -0.13137312 -0.08855033
0001b0 bd 3d f5 3d 7c 53 17 3d d0 21 c0 bc 21 0b b6 bc
       0.11974666 0.03694485 -0.023453623 -0.022222104
0001c0 67 76 09 bc a6 f4 0c 3c 1c 08 84 3c 79 4c bd bd
       -0.008390046 0.008603251 0.016117148 -0.092431016
0001d0 f0 bc c4 3d 72 e1 e1 bd b9 ab f6 3d 27 69 82 bd
       0.096063495 -0.110293284 0.12044472 -0.063677125
0001e0 49 da df bc 7b 08 d2 bd 56 be f3 3d b0 66 c8 3d
       -0.027325766 -0.10255524 0.11901538 0.09785211
0001f0 da 3c 47 bd 9a 3b 63 bd 29 75 66 bc 3c 91 1c bc
       -0.048642017 -0.055476762 -0.014066019 -0.009556111
000200 a6 04 48 3d f4 41 bc 3d 6a 1a 9e bd c1 03 ee bc
       0.048832558 0.09192267 -0.07719882 -0.029054524
000210 4c d5 2e bd 5f 8b c5 3d ef 21 b6 bc c3 d5 44 bd
       -0.042683885 0.096457236 -0.022232978 -0.04805542
000220 04 10 cd bd ef 78 bc 3d a4 0f 78 3c e4 80 52 3c
       -0.1001282 0.09202754 0.015140448 0.012848113
000230 78 c8 9f bd 4f de b5 bd de b3 51 bc 3b ed 6e 3d
       -0.07801908 -0.088802926 -0.012799231 0.05833171
000240 f8 e9 8e bc 84 74 d8 bd 22 e0 32 3d d9 61 62 3d
       -0.01744555 -0.105690986 0.04367078 0.055269096
000250 19 f5 9f bd 70 86 88 bd a7 d6 85 bd c6 ae ba 3d
       -0.078104205 -0.06666267 -0.06535082 0.09115367
000260 5c a7 e8 3d 7f 60 36 bd 86 48 ce 3d 57 8c 11 bc
       0.11360046 -0.04452562 0.100724265 -0.008883557
000270 fa fb f2 bc 86 be 7d 3d a0 59 8e bd d1 99 8b 3d
       -0.029661167 0.061949275 -0.06950688 0.068164475
000280 9f ea 92 bd 5a 31 9a 3d 7e cb 77 bd ea 2b 0a 3d
       -0.07173657 0.07528944 -0.0604968 0.033733286
000290 cc 9a e8 3d 61 95 00 3d 26 f8 20 bd d9 1f 42 3d
       0.1135765 0.03139246 -0.039299153 0.047393654
0002a0 8a a4 54 bd b8 97 c2 bb 59 bd 0e be 21 50 e8 3d
       -0.05191473 -0.0059384964 -0.13939418 0.113434084
0002b0 53 97 1e bc b1 64 ac bd 5f fe a4 39 76 5a f6 bc
       -0.009679633 -0.08417643 0.0003147004 -0.030072432
0002c0 73 36 c5 3c e1 ce 66 3d 0b 34 88 3d 02 a7 b9 bd
       0.024073815 0.05634964 0.066505514 -0.09065057
0002d0 9a 7d d4 3d 66 b0 bb bd 3c b3 fa 3d d5 ff 07 bd
       0.10375519 -0.09164505 0.122412175 -0.033202965
0002e0 02 24 9f 3d a2 38 ac bd 68 e4 b8 bd 68 85 5b bd
       0.0777054 -0.08409239 -0.0902794 -0.053594023
0002f0 71 33 16 bc 7d cd fe bc 97 b5 d1 bd f3 78 2f 3d
       -0.009167538 -0.031103844 -0.10239714 0.042839956
000300 e6 71 a0 bd ad 0f ba 3d 87 de 9d bb 22 98 90 3a
       -0.078342244 0.09085021 -0.004817787 0.0011031667
000310 39 d2 ec 3a f6 d8 d1 3c d3 c9 27 3d 12 b2 0d bb
       0.0018068022 0.02561615 0.04096396 -0.002162103
000320 1b 57 1e ba 18 9f f4 3d 57 dc 9a bd 5f a8 d0 bc
       -0.00060402014 0.11944407 -0.07561558 -0.02547091
000330 64 47 aa bd e6 f8 ef 3b 58 3c 68 3d 93 24 21 bd
       -0.08314398 0.007323372 0.056698173 -0.03934152
000340 2a 53 3a 3c d3 4d c4 bd 3a b5 cc 3d 6d c0 bf bc
       0.011372367 -0.09585156 0.09995504 -0.023407185
000350 9d 97 8d bd f6 72 da 3d 88 d4 6a bd 1e 57 a9 bd
       -0.069136836 0.10666458 -0.05733159 -0.082685694
000360 65 a7 eb bd d1 c9 87 3d 22 fc 1c 3c ec 49 a1 3c
       -0.11506537 0.0663029 0.0095815975 0.019688569
000370 5b a3 ab 3d c9 ff a4 bc 22 64 05 3d d2 3e a8 bd
       0.08380767 -0.0201415 0.032566197 -0.08215107
000380 3d 1d c0 3c d1 b4 ce 3d b0 c7 27 3d 84 34 ca bd
       0.023451442 0.10093082 0.04096192 -0.09873298
000390 c9 35 06 3e c7 18 13 bd 65 63 af bd 55 50 d2 bc
       0.13106455 -0.0359123 -0.0856388 -0.02567307
0003a0 f6 5a af bd 48 ce ae 3d a0 1b 9b 3d 6f e6 84 bc
       -0.08562271 0.08535439 0.075736284 -0.01622316
0003b0 11 0c e9 bc 98 e3 e3 3d 51 b2 e8 3d bc a4 81 3b
       -0.028448137 0.111273944 0.11362136 0.0039564054
0003c0 95 ff b5 bd f9 73 cf bc ea 89 49 3c 86 0c aa 3d
       -0.08886639 -0.025323855 0.012300948 0.0830317
0003d0 29 a8 a6 bd 6d 5e b2 3d 64 26 cf bd 27 74 55 bc
       -0.08137543 0.087094165 -0.10114744 -0.013028181
0003e0 d9 aa ec bd 12 5b e6 bd d0 77 89 bd 8c c9 cb bd
       -0.11556024 -0.11247839 -0.067123055 -0.099505514
0003f0 53 da cb 3d de 37 63 bd 9b 7f 66 bd a4 a7 e2 3d
       0.099537514 -0.0554732 -0.056274038 0.11067131

sequential_5/conv2d_20/Conv2D f4 [8, 3, 3, 16]
000000 7f 4a 80 3d cd 05 a3 3d bb f5 fc bd e1 81 4c bd
       0.06264209 0.07960091 -0.12351557 -0.04992855
000010 33 02 d1 3a 08 15 96 bd 4e 46 22 be 94 1b b1 bc
       0.001594609 -0.0732823 -0.15847132 -0.021619596
000020 68 9a 2a bd 7f aa 6f 3d 17 d1 ae 3d cc e9 06 be
       -0.04165116 0.058512207 0.085359745 -0.13175124
000030 92 66 d0 bd 52 9e 25 3e 75 36 ca bd 02 a3 78 3d
       -0.10175814 0.16173676 -0.09873668 0.06070233
000040 b1 d9 c6 3b 84 19 18 be 8d 46 d3 bc c5 d8 5c 3e
       0.0060684313 -0.14853483 -0.025790477 0.21567066
000050 b8 f7 37 3e 77 ff a2 bd 44 64 75 bd 9c b6 c9 bd
       0.17965591 -0.07958882 -0.059910074 -0.09849283
000060 1b 5d ad bd 90 9e 5e 3e 02 ce 09 be ee e6 f0 bd
       -0.08465024 0.21740174 -0.13457492 -0.11762796
000070 7c c6 80 3c ea 83 8a bd 65 83 98 3c bd 39 c2 3d
       0.015719645 -0.06763442 0.018617341 0.09483669
000080 9e 37 22 3c c7 1e f9 3d 1f cb b5 bc 9a d8 9f 3d
       0.0099009555 0.121640734 -0.022191582 0.07804985
000090 2d 31 04 3d 02 27 fc bc f3 fd 0c be 66 17 f0 bc
       0.03227346 -0.03078032 -0.13768749 -0.029308032
0000a0 75 ab bb 3d 57 08 6e 3d aa 0b e1 bc 1c b1 9b bc
       0.09163562 0.058113422 -0.027471382 -0.01900535
0000b0 5f 7a ff bd 3c 9a 10 3e 92 62 45 3e 0a 54 3c 3e
       -0.12474512 0.14121336 0.19275883 0.18391433
0000c0 5e ce 2e be ae 5a d5 bd f1 3a 8d bd 96 25 58 bd
       -0.1707091 -0.104176864 -0.06896008 -0.05277022
0000d0 f6 d0 8b bd f7 4d 23 be c9 ea db 3d 1d e1 45 3b
       -0.068269655 -0.1594771 0.10738141 0.0030193992
0000e0 b1 0d 42 bd fc eb 43 3e be 38 aa 3d 80 84 ce 3c
       -0.04737634 0.1913299 0.08311604 0.025209665
0000f0 03 29 08 be be 70 1c 3e e1 7b 96 bd 96 18 d7 bd
       -0.13296895 0.15277383 -0.07347847 -0.10502736
000100 72 7e d0 bd c6 cd f7 3b 58 76 2b 3c 8e 91 1f 3e
       -0.101803675 0.007562372 0.010465227 0.15582868
000110 90 bb 2c 3d 5a 8f dd bd f6 2a 5f 3d 3f f7 d2 3d
       0.04217106 -0.10818358 0.05448433 0.10301065
000120 a7 45 d8 3d 7e c8 88 bc c7 e8 09 3e 37 8c f4 3d
       0.1056016 -0.016697165 0.13467704 0.11940806
000130 b3 11 bb 3d 48 a7 1d 3e ae 42 d2 3d bd 8b 00 3e
       0.09134235 0.15395844 0.102666244 0.12553306
000140 ff a4 e4 bc f0 e5 30 bc 03 af 85 bc ee 1e 84 3c
       -0.027910708 -0.010797009 -0.016318804 0.01612803
000150 56 db f7 3d ce a4 01 3e 4f 5e 0e 3b b6 ee ce 3c
       0.12102382 0.12660524 0.0021723693 0.02526031
000160 f3 e0 99 3d 48 d5 87 3b 69 1d b9 bc f1 64 25 bd
       0.07513609 0.004145298 -0.022597032 -0.04037947
000170 9c d9 7e bd d1 c9 04 be 9b 2e ba 3d 93 e3 bd bd
       -0.062219247 -0.12967612 0.090909205 -0.09271922
000180 f5 c4 1c bd 00 ef 6d 3b 3a 2a 97 bb 73 df 7a bd
       -0.03827377 0.0036305785 -0.004613188 -0.061248254
000190 a0 d9 b2 bc 87 b2 f7 3c ac 48 f8 3c b0 66 82 bd
       -0.021832287 0.030236496 0.03030809 -0.06367242
0001a0 7f a7 1c 3e d1 96 56 bd de c3 2d 3e f5 16 62 3d
       0.1529827 -0.052389923 0.16969249 0.055197675
0001b0 b5 73 5f bd 34 aa 24 bd 62 c6 2d 3d c6 c6 98 bc
       -0.054553706 -0.04020138 0.04242552 -0.01864947
0001c0 e4 6f f9 3b 71 ae 88 3d 3c 03 08 3e bf 7a b7 bd
       0.0076122154 0.06673897 0.13282484 -0.08958959
0001d0 97 a1 10 3e de 45 c8 bd ec d4 16 bd 93 f9 c1 bd
       0.14124142 -0.09778951 -0.036824152 -0.09471431
0001e0 1a 1b a2 3c 29 12 a5 bd 8d 8d d3 bd 31 de 2e 3e
       0.019788314 -0.080601044 -0.10329733 0.17076947
0001f0 db 04 71 bd 22 3e e1 3d bc a0 96 3d 47 54 4f 3d
       -0.05884252 0.10998179 0.073548764 0.050617483
000200 37 86 0f be da a8 9a bd 34 42 05 be 7f f5 b9 3d
       -0.14016043 -0.07551737 -0.13013536 0.09080028
000210 95 a4 28 bd 0f 74 8d bd be 3a 0f 3e c1 7a 28 3e
       -0.041172583 -0.06906902 0.13987252 0.16453077
000220 af b6 85 3d b1 da 9a 3d d6 94 da 3d cd d7 b7 bd
       0.06528985 0.07561243 0.106729195 -0.089767076
000230 84 96 53 bd 52 6e cd 3d 3a 04 17 3e fb c7 cd bd
       -0.051657215 0.100308076 0.14747706 -0.10047909
000240 9c 46 97 bd 2b de a9 3d 57 c6 45 3e 7f fa 4d bd
       -0.073865145 0.08294328 0.19313942 -0.05028772
000250 58 e7 b2 3d 64 c8 24 3e 92 2d a0 bd 24 cc 7a 3d
       0.087355316 0.16092068 -0.07821192 0.06122984
000260 20 70 c3 3d 7f 77 1a be 24 8d cf bd 2c ca 21 3e
       0.095428705 -0.15084647 -0.10134342 0.15799779
000270 66 54 81 bd 9b 08 17 3e 04 04 24 be 8f 6f 05 be
       -0.06314926 0.14749376 -0.16017157 -0.13030837
000280 00 59 b4 3d 79 5e c0 3d 24 19 96 bd 4b b7 8b 3d
       0.08806038 0.09393019 -0.07329014 0.0682207
000290 01 c3 d0 3d 92 0a 1d 3e 6e 24 5f bd 1f 21 25 3e
       0.10193444 0.15336064 -0.0544781 0.16125916
0002a0 97 13 42 3d e7 8b 66 3c 24 90 26 be ec e8 fa 3d
       0.047381964 0.014071441 -0.16265923 0.122514576
0002b0 69 e5 88 3d ac 56 97 bd f6 0e b9 3d 71 60 f6 bd
       0.066843815 -0.07389578 0.09036057 -0.120301135
0002c0 19 1b 4b bc fd 12 8c 3c 7b f7 ac 3c 1d d0 1f 3d
       -0.012396597 0.017098898 0.021114102 0.03901683
0002d0 d2 2b 1c 3e f9 01 28 3e 6d 35 fc bd 63 2a a8 3d
       0.15251091 0.16407003 -0.12314878 0.082112096
0002e0 69 19 d2 bd 3a f9 b1 bc 40 c4 ec 3c 06 8c a5 3d
       -0.10258753 -0.021725286 0.028902173 0.08083348
0002f0 e8 6b 80 3c cd 78 29 3e 1c 34 f8 bd 08 00 e0 bd
       0.015676454 0.16549988 -0.12119314 -0.10937506
000300 6c a5 ee bc b9 f0 24 3e 10 bf 19 3d 93 d2 47 be
       -0.029131614 0.16107453 0.037535727 -0.19513921
000310 39 a8 00 3e 5a 4d 80 3d 74 c5 86 bb 2e fb 50 bd
       0.12564172 0.06264754 -0.0041128937 -0.051020794
000320 32 8e fb 3d 8e 07 00 be a0 ee 34 bc 12 a2 c3 bc
       0.12282981 -0.12502882 -0.011043221 -0.023880992
000330 4c 88 00 3e ee 4c bc 3d ff 57 54 3b 04 41 cb 3d
       0.12551993 0.09194361 0.0032401083 0.0992451
000340 b2 1b cd 3b ab 1b 32 3e e1 86 8c 3d 37 8a 8c 3d
       0.006259405 0.17393367 0.068616636 0.068623
000350 2f ad f2 3d 14 ff 90 bd e7 07 8a 3c 44 e9 5a bc
       0.118494384 -0.07079902 0.016849471 -0.013361279
000360 63 7c cc 3d 80 2e 34 be 9e 5c 21 3d c9 bf 46 bc
       0.099846624 -0.17595863 0.039394967 -0.012130686
000370 27 fb 0a be 62 9b 19 be b5 5e 94 bd 9b 89 02 bd
       -0.1357237 -0.1500068 -0.072446264 -0.031869512
000380 ff b1 b9 bc 2f 74 3d bd 96 81 2a 3e 57 06 84 3d
       -0.022667883 -0.04625338 0.16650996 0.06446522
000390 bd ea d1 3d 2d 4f b7 bd 34 6d 16 be d3 aa 0f bd
       0.10249851 -0.089506485 -0.14690095 -0.03507502
0003a0 b6 86 b0 bd f6 a5 f7 3d 8f a2 bc bd bb 3e 34 bd
       -0.08619444 0.120922014 -0.09210693 -0.044005137
0003b0 a0 05 02 3e 42 81 12 3c 0c b9 03 3e 5d 3e 74 3d
       0.12697458 0.00894195 0.12863559 0.059629787
0003c0 9b 8d 7c 3b 1c df 55 bd 81 3f bf bc 09 4f a8 3c
       0.0038536552 -0.052214727 -0.02334571 0.0205455
0003d0 86 51 00 bd 03 c4 14 3e a7 fd 7b bd 42 7e 88 3d
       -0.031327747 0.14527898 -0.0615212 0.06664707
0003e0 3a 26 1e 3e 29 19 0f be 8b 24 13 be c7 2a c4 bc
       0.1544427 -0.13974442 -0.14369409 -0.02394618
0003f0 c6 0e 76 3d 3e 60 2c 3e 89 5c b9 bd 08 5f 48 ba
       0.060072683 0.16833588 -0.09050853 -0.0007643555
